stored_nn_configurations/initial_saved_encoder.pth (torch, 5299 bytes, 4 tensors)

LSTM.weight_ih_l0 f8 [32, 4]
0	0xc006e3c2cce04cd3	-2.8612113958311993
1	0x400dd0d1aeab5b2f	3.726962437252403
2	0xbffa4432d0169d36	-1.641650021405281
3	0xbffbee0931f0c9ac	-1.7456142378619957
4	0xc008eb0cada786f4	-3.114770275759719
5	0x400a796a91f406c6	3.3092852976413694
6	0xbfb2c73c8190446a	-0.07335260546848735
7	0x400cf0561f4e12a9	3.6173517652226406
8	0xbff19d70a38c8faa	-1.1009374989161906
9	0x4009ba9201fc2d10	3.2160988001902595
10	0x3ff9d134ac74637d	1.6135756241330619
11	0xc00ec72fcaa721aa	-3.8472591240171896
12	0x40049a13faa93033	2.5752334196931996
13	0xc0057cbbde3472e1	-2.685905204749688
14	0xc006852c0f06a59a	-2.8150254415420024
15	0xc0061b1f65aefbd9	-2.7632434791589557
16	0xc00935f4ea4ce3bd	-3.151346044990048
17	0x4009e36497e08260	3.2360317101850313
18	0x40002755ed92e612	2.0192068634467057
19	0xc00a90041837b127	-3.320320309829316
20	0x400afae3458dd153	3.372503798857147
21	0x40131aa792a774ef	4.776029864760161
22	0xc017bda902964545	-5.935215034887112
23	0x4008c6efa3092035	3.0971367585334755
24	0xc0124f82d1772e92	-4.577647469424521
25	0x4000f7f10c545131	2.121065231631427
26	0xbfb6cec1638c2a34	-0.08909233742102957
27	0xbfe1de72d55695e0	-0.558404366184444
28	0x4004aa60834a1e82	2.58319189615196
29	0xbff6004f45e69cf1	-1.3750756006718883
30	0xbfb5ca2741abb030	-0.08511586526191262
31	0x3fefd5a42d01b4ee	0.9948292616878953
32	0x4002e95cf1a5e1e8	2.363946807741957
33	0x400d98c7e3578fc2	3.699600006208102
34	0x400c997109bf0704	3.5749226342603624
35	0x400dff348a724786	3.7496119323849966
36	0xc00414c23bdb5801	-2.5101360966027646
37	0x4015de0c8ea71b3a	5.466844777058947
38	0xbff7813129cc464b	-1.4690410263759925
39	0x3fe5412b1f38a229	0.6642051324643649
40	0x3fe8bacc55c615ea	0.7728025126713736
41	0xbff09ae3ef3a85fa	-1.0378150315158323
42	0xbfebae9c108e5888	-0.8650646518097043
43	0xc00db3792e89adae	-3.7126334796682476
44	0x4008304ccebad896	3.023583998753632
45	0xc00998682410f43a	-3.1994173829721406
46	0xc00761bef755250c	-2.922727520261679
47	0xc00b2c850c586457	-3.3967381443476756
48	0x40064dcfc381c185	2.7879939340566033
49	0x4006f9d5ebeee4a3	2.871990054347934
50	0x400598739d32d2fc	2.699439266313105
51	0x40080ba0f07aa088	3.005678061239511
52	0x400bd8ebb8a6087d	3.4809183526677416
53	0x400241154743972c	2.2817788665296543
54	0x4000d680beac9cb1	2.104737748758986
55	0x40086290e66b37b7	3.048127937457106
56	0xc00b89f03f68e794	-3.4423527673615784
57	0x3fef662bfa3096dc	0.9812221418876237
58	0xbfd9c4af562b2cff	-0.4026296941271567
59	0xbff5d55ed37d7b6c	-1.3645923863730003
60	0x400a0d83ce5ad2ed	3.2565990563838256
61	0x3ffdd2b73e7f7372	1.8639442864725564
62	0xc00221002ce92917	-2.26611361586141
63	0xbff1f9f8dbb182a3	-1.123528345277159
64	0x3fda3f0b1f688fa1	0.4100978666995108
65	0xbfd1a250ccaff9b1	-0.27553195942882797
66	0xbff5fe180a752041	-1.3745346458909042
67	0xbfd7b7ffaa9824ff	-0.3706053892097571
68	0xc00505a14c13004f	-2.627749056177016
69	0x3fffb9e21b7e54d2	1.9828816484417087
70	0xbfeef7c637760a6a	-0.9677458842491664
71	0xbff1e5b073f4bf49	-1.1185764817746124
72	0x3fe08f48e412aa1c	0.5174908117817867
73	0x400f4666bce2b089	3.9093756443672345
74	0x3fe50df191968361	0.6579521029963012
75	0xbfee3d1ead8ca7eb	-0.9449609174382635
76	0x400868700fe1aacd	3.0509949913733636
77	0xc008052dc4392cec	-3.002528698916299
78	0xc007b56bd2f0b175	-2.96358456418073
79	0xc007718e20ce354b	-2.9304468691758863
80	0x40013da7dc00eefe	2.1551053226265813
81	0xc010cc9975e55851	-4.1998041554671355
82	0xbff5da14bc56a470	-1.3657424313517161
83	0x3ff58bbf4f8327cc	1.3466179948759303
84	0x4006964527288846	2.823374086307953
85	0xc0084c9c83784d74	-3.037407900914042
86	0x40090b95e8c733f3	3.1306570230285558
87	0xc00a9a0ce67c57d7	-3.3252199179359923
88	0x400c4d34ad14b4ad	3.5376981279319666
89	0xc007792cbaaa88c8	-2.934167345361036
90	0xc005c7acdfe812c0	-2.722497700948537
91	0xc00483fd1715eeb5	-2.5644475749557736
92	0x4011cdbd6eabe0ee	4.4509179394155876
93	0xc00fb51edefd7973	-3.963437788114953
94	0xc00002e222049f59	-2.001407876745287
95	0xbfe3310146ebf365	-0.5997320542515864
96	0xc009cc93d0085020	-3.2248913052117274
97	0x4003f2f4663d0a17	2.493630217302108
98	0xbff937af9c114ded	-1.5760952087774698
99	0xbfe093d40c68ada7	-0.5180454485284159
100	0xbff1f94627e75cb9	-1.1233579214802332
101	0x40119f9cee775b97	4.405872083697338
102	0x3ff28e9c8f66784c	1.1598172761510055
103	0x3ff9d39c99756935	1.6141630167463294
104	0xc0012cad6125f16f	-2.146815070124084
105	0xbfe9fbcb0a971245	-0.8119864661062556
106	0x4004b9f6600f8627	2.590801954721218
107	0xbfedeee028682098	-0.9354096211618694
108	0x40087c782cc9ab41	3.060776090530823
109	0xc006edb6f567b0e2	-2.866071622111222
110	0xc00573ed48a2cb6a	-2.6816049265557256
111	0xc00791ff9ad01421	-2.9462883085966642
112	0xc00a63cf6ff99ea6	-3.2987354991963285
113	0x40017dd5bb4ebca0	2.1864428170589036
114	0x40016484b689f4b7	2.1740812550402455
115	0x3ff76ccb6aeb8c8d	1.4640611816946916
116	0x4011436d5f1f179c	4.315846906922072
117	0x4011bb90abf4864c	4.433169066238019
118	0xbff2a51465678479	-1.1653026543720257
119	0x4011fc28060967ab	4.4962464278450325
120	0xc003b82941c86bc9	-2.464922441414704
121	0x4003324234fb2a7f	2.3995403422498494
122	0x3ff4d7612877594b	1.302582891532057
123	0x3ff9462adeb759ce	1.5796307277538406
124	0x40084bc4e8e22e9b	3.036996669199494
125	0x40025e122f5aa258	2.2959331225904798
126	0xbffeb91955fcee71	-1.920190177813222
127	0xbffc06cca91b568e	-1.751660023282429

LSTM.weight_hh_l0 f8 [32, 8]
0	0xc010a00be2a1b339	-4.156295338744536
1	0x400c018b68a6fb38	3.500754182430139
2	0x400ae7a41f707921	3.3631060081671795
3	0xbfe16e69f53cc493	-0.5447282590668173
4	0xc00ab1253a7cfb45	-3.3364967889205297
5	0xc01416d40a6fb721	-5.0222932463346135
6	0xc009db454427cea5	-3.232065708603687
7	0xc004f418789f9d8f	-2.6191873000822805
8	0x4004420bebcc9121	2.532249300175082
9	0x40080a908b8fff8a	3.005158510524727
10	0x4008556e6f3b1b7a	3.0417145433343054
11	0x4008c98a301a0f24	3.0984081037476177
12	0xc0068dd60573faaa	-2.8192558694857626
13	0x400487896cd5f977	2.5661800864028765
14	0xc00af766313f2c0f	-3.3708003852275463
15	0x4009ab8d3a31042c	3.208765463467463
16	0x40047095814d3290	2.5549726583179293
17	0x401010c522b6fc2b	4.016377012651939
18	0x400f90a59f89d3ff	3.945628401178055
19	0x40098e7ab809f9df	3.1945700052303745
20	0xc00d85b6265206be	-3.690288829210515
21	0x4009fa7451d08a8e	3.247292174507783
22	0xc01070c5e6a349af	-4.110129932133005
23	0x40083167ea5caa03	3.02412398429192
24	0xc007b8c4eeae7a91	-2.965219368648214
25	0xc0074df73cf1a329	-2.913069225429713
26	0xc007b1acb109dd30	-2.96175516425469
27	0xc006bd0ea88969ea	-2.8423131148276655
28	0x4008d2ab5144b070	3.1028658246123584
29	0xc0098341dd42b274	-3.1890904699305853
30	0x400a8d4b2006db36	3.3189909460155844
31	0xc007103334309f1a	-2.882910163625536
32	0x4008937676308ba3	3.072003291470041
33	0x4008da6d6aef4343	3.106654010225982
34	0x400c2b64720e9fb6	3.52118767840508
35	0x400598a111468000	2.699525961841573
36	0xc006da99c85b3dcb	-2.8567386296124133
37	0x4006e676a537acaa	2.8625309856048107
38	0xc008ff03271609f6	-3.1245177320099584
39	0x4008b27a8d720d66	3.087147812884427
40	0xc00945d026c02503	-3.159088423479831
41	0x3fe768e8ab9891f4	0.7315562583431174
42	0x3feb9767ce175ac9	0.862232115289623
43	0xc0099377a8b0c43d	-3.197005575079429
44	0xbfd2461a285fcae0	-0.28552869742195064
45	0xc000fc9d2cbb47e2	-2.1233466620114863
46	0xbffeea63cb38a723	-1.9322240770656627
47	0xc00800cfd4ecad5c	-3.0003964075782914
48	0x4008e22271a61b83	3.1104172591034867
49	0x40109ecd53198a38	4.155080126222451
50	0x400faca59f0c8923	3.9593002725315656
51	0x40062d0cbcacd000	2.7719969501722517
52	0xc00f34669e756c5c	-3.9005863551697484
53	0x4007da0af468ef4f	2.9814662069819984
54	0xc010ec90a258add7	-4.231020485556164
55	0x400662eb3a5c753c	2.798300224253266
56	0xbff9e76386bb5f9c	-1.6189914000478671
57	0xc01506eba61314c0	-5.256758303560844
58	0xc0133e99533c28fa	-4.811131763979796
59	0xc008daea2e31ef42	-3.1068919762600737
60	0x4011131f9687102e	4.2686751861511265
61	0xc005f70ba7d415b0	-2.7456277000043983
62	0x4012c2f5b29571fd	4.69039038693563
63	0xc007ad6d2944c7ad	-2.959680864726542
64	0xc01241c3e0fd0ec3	-4.564223781056799
65	0x40084b877c2a78dc	3.0368795109235247
66	0x400813cfd1183da3	3.009673722793836
67	0xc00835b22e4cb998	-3.0262187592663388
68	0xc0043563cf72c97a	-2.526069279375574
69	0xc013727a0c1a87af	-4.861793698424591
70	0xc00acfc4d4a838c4	-3.351449643501015
71	0xc00855a9f3fef468	-3.041828066080189
72	0x3fd2ea096827e1eb	0.29553446933235133
73	0x4000963b1afaf6ad	2.073354922088433
74	0x4005d9dbd58cde2c	2.7313763316740474
75	0x4007be9da6bd6e0c	2.9680741335448655
76	0xc008f59657d2cc0f	-3.119915662880437
77	0x3fe624731fea2d14	0.6919494269690483
78	0xc002c59bd49ac5e3	-2.3464886293156595
79	0x4006b74f28e7ffc1	2.8395064540672768
80	0xbfccf2973a3fbd4c	-0.2261532816332682
81	0x400d286160b89d1b	3.6447169834460857
82	0x400bf652271d8915	3.4952738815201294
83	0x400b238286329f82	3.392338798923391
84	0xc00dc0bd6dd891e4	-3.7191113073079
85	0x3fedf7cad314f6d2	0.9364980814641177
86	0xc00a3decb7e3361e	-3.280236660596315
87	0x40056503046a1ebf	2.6743221611867223
88	0xc0084dcf7cee4b27	-3.0379934082242417
89	0xc00acf26f52d1122	-3.3511485247019133
90	0xc004e44087e4b9f1	-2.611451207797693
91	0xc0066b74ac59bfd4	-2.802468630303318
92	0x40073d53f21de7d6	2.9049452700973957
93	0xc0082a154a811553	-3.0205484219210716
94	0x4008dd7b448b0b56	3.1081452708180377
95	0xc0071d5a400db8b6	-2.8893322948634603
96	0x4006b047bd370100	2.836074331513487
97	0x40093b4a6162fd7a	3.1539504631361384
98	0x40079fd070120289	2.953034282254809
99	0x4007a64521adb2cb	2.956186545480113
100	0xc007d22eb4be00b4	-2.9776281471714245
101	0x4008a7da762070af	3.081959650864597
102	0xc0073751d5e25390	-2.9020115575498906
103	0x40089b088cc8f18b	3.0756999014685724
104	0xbfe0e9a2a2d64179	-0.5285199337395589
105	0xc01071f2659aae10	-4.111276233259119
106	0xc00d44bc7a11691d	-3.6585626160205167
107	0xc007c3ddb967a0c9	-2.9706377491712357
108	0x400dc9e76645f019	3.723585890778861
109	0xbff6e0ff9020854b	-1.4299312238657247
110	0x40072b2677251d89	2.8960694606973374
111	0xc0080c04de81ac18	-3.0058686621973827
112	0x40016b9407c4328e	2.1775284392118186
113	0x400e8f5b3cf5f216	3.819998241668382
114	0x401070490d0a16cb	4.109653667202745
115	0x4006774a0fd68a3e	2.808246730551473
116	0xc00e9a87dad4b2f5	-3.825454434982357
117	0x4005b44ef3a5f546	2.713041213514461
118	0xc00dd0be4f861b57	-3.726925488739123
119	0x40089e0be107604e	3.0771710949302706
120	0xc0068d8e442e48c8	-2.8191190077423904
121	0xc00cccd961b411d9	-3.6000239976003567
122	0xc00c2cfd69bbeed8	-3.521967721984634
123	0xc007253783891482	-2.893172290440419
124	0x400a85ae3c30b15f	3.315273733364094
125	0xc007887f84f98106	-2.941649474014528
126	0x4010daa35eb05739	4.2135138316278296
127	0xc0075e2e82d6e2cc	-2.9209871503665905
128	0x3ff4bd28f569c07e	1.2961816393326724
129	0xc0144e2d0bf1f639	-5.076343714373757
130	0xc010d0a7d2749c94	-4.2037651904749005
131	0x400958a18ded3524	3.168276890565396
132	0x4011eda1c02a2dd8	4.48206234223786
133	0xc00051835ad52a6c	-2.039801320677091
134	0x4004bd00e9a3925b	2.592286896995842
135	0xc007c5f854548b81	-2.971665057020289
136	0x4001a364988dd718	2.2047817152296254
137	0x40099d409b192506	3.2017833821342974
138	0x400f67d14408ff81	3.9256921115156165
139	0x4009f0c0f6ae3019	3.2425555488498614
140	0xc008c56a752c16f3	-3.0963944582061855
141	0x4001d9bec220bf8e	2.23132087385597
142	0xc0136e4deeaa7f3e	-4.857719163090051
143	0x4004db94acea776e	2.607217169671393
144	0x40065ddc2314e4fc	2.7958300343276488
145	0x400b26efdac3b678	3.3940121737458036
146	0x4008c1da56a6badd	3.094654728854364
147	0x4009825d51104979	3.188654549893894
148	0xc00a73d1c34e12ed	-3.3065524347497246
149	0x4006b4b7048c8c4e	2.838239703692614
150	0xc00b0b2c4d859aa9	-3.380455594672942
151	0x4007615042b17943	2.9225163660441082
152	0xc0090d24411e7f47	-3.1314168059761047
153	0xc0079a5e5281b62a	-2.950375217994197
154	0xc0078fb8d0b1940e	-2.9451767257874115
155	0xc008bd1ea0a05302	-3.0923435734679297
156	0x4008966262ce5547	3.073429843827998
157	0xc009d6574518c363	-3.2296586416418207
158	0x400850b6a9e723e8	3.0394109033263597
159	0xc00a0c383583f375	-3.255966585244489
160	0xc005e51378f7e1f9	-2.7368535471580313
161	0xc00a118d05c18191	-3.258569760291899
162	0xc0085f9ae27438c2	-3.046682137653165
163	0xc0068c3a94d97798	-2.818471110235759
164	0x40097ac5542f5843	3.1849466874073484
165	0xc0086ccbe3bd8d84	-3.053123263570969
166	0x4005eb1dc4dead0b	2.7398028736548716
167	0xc00440a786b7a868	-2.5315695309446262
168	0xc0089387accf68d8	-3.0720361233517046
169	0xc0080c6982426134	-3.0060606171138264
170	0xc006164ece77e8ff	-2.7608924990028068
171	0xc007ac905b723298	-2.959259714529548
172	0x40079add286998ff	2.9506171376443713
173	0xc00a79f71bedd05f	-3.3095533544492777
174	0x4006f7561341983c	2.8707696442025092
175	0xc0077b8707af143b	-2.935316143064964
176	0xc0086f7ef3afd2cc	-3.0544413602859546
177	0xc0089552a988d389	-3.072911571968181
178	0xc00a6384f202024c	-3.2985934168685045
179	0xc007e034d220968a	-2.9844757476992685
180	0x4008c78410c62432	3.097419863745494
181	0xc0062ace49c7adb9	-2.770901276022155
182	0x40085433ccdbf187	3.0411144260999126
183	0xc00845c77e2bc30f	-3.034071908674725
184	0xc0059c0bf159708f	-2.701194654027922
185	0x3fff0a175b482cfc	1.9399636808109895
186	0x3ff4fb597527279f	1.311364610317902
187	0xc006d9bd7b6e517f	-2.8563184397737014
188	0xbfe8840341abc673	-0.7661148340832383
189	0xc00c025dac698174	-3.5011552304933335
190	0xbff7ebb082be6ef2	-1.4950413806135967
191	0xc007142c7f9410eb	-2.88485049887287
192	0xc0138190d660f5d3	-4.876529073398575
193	0x400e898005260564	3.8171387102344614
194	0x400d76bf9caf860d	3.6829826584878504
195	0xc00517f534cd90e9	-2.6366981625779897
196	0xc00d511e24acd24e	-3.6646082749596536
197	0xc015a399cf29f61e	-5.409766423164482
198	0xc010bd9973a69398	-4.185155684511209
199	0xc007f90ea00b4f14	-2.996609926552887
200	0xbfef8389560dad5b	-0.9848066979151712
201	0x3ff835dfd632972b	1.5131529204458711
202	0x400bcd2fae3ddb87	3.475188599837057
203	0x4006ffa974318b2d	2.8748349263782047
204	0xc00c438b6b8cb966	-3.5329807665176984
205	0xbff46109d8629433	-1.273691029791064
206	0xc000bae35d0a38c1	-2.0912539738411344
207	0x40070303a9ccad89	2.8764718309009294
208	0xbff8bf582ca33f21	-1.5467149490031675
209	0x400ddc9d6ee4c11e	3.7327221549568455
210	0x401108e0a286c61c	4.258669414020485
211	0x40069f3f6ef16d87	2.827757708304208
212	0xc0134005fb77e034	-4.812522820655477
213	0x3fcedeaf60ca5064	0.24117080904091204
214	0xc010b23c3f4ba0c1	-4.1740579500112185
215	0x4009d88e1f0ca72e	3.23073982484211
216	0xc00833b6ba6d5293	-3.025250870190868
217	0xc008f8ce8fc4059e	-3.121487734956374
218	0xc0083c9acd0cac6c	-3.0295921344273236
219	0xc0073f66608cced7	-2.9059569876643354
220	0x4005a6a35e584f3c	2.7063662882518695
221	0xc00818b586b21672	-3.0120649836633726
222	0x4006f8ededafcbbc	2.8715475625299103
223	0xc008e6dcfa81d7cf	-3.1127261706232967
224	0x400509704b2b5dd9	2.6296087143525537
225	0x400e577f97765325	3.7927238305077418
226	0x400d78611ea12cbb	3.6837789910256027
227	0x40054be7d4dafc85	2.6620632771806094
228	0xc00c61e90d0576ec	-3.547807790498032
229	0x4007350fda3f7f22	2.900909142554057
230	0xc00ed08c0f08151d	-3.8518296408025336
231	0x40073fe0268bd838	2.9061892520358263
232	0xc00f7b8a9390687f	-3.9353229072995073
233	0x3ffe4361be8d3954	1.8914506381439269
234	0x3ff8c99809d39751	1.549217260727762
235	0xc007f23b8aa1fa3a	-2.9932776289636225
236	0xbfde3556d6719f04	-0.47200556699543506
237	0xc00b8b4b17a3aec1	-3.4430143210246063
238	0xc005b1ff578c48db	-2.711912807434698
239	0xc00842748a4be318	-3.0324488453301335
240	0x3fff4968f1c69521	1.9554223484386244
241	0x400e6a77dddc188d	3.8019864399712504
242	0x400ff75cffabfe89	3.9957828497279633
243	0x400a991419ae6866	3.3247453695631064
244	0xc00c7c6acc05a258	-3.5607505740374954
245	0x3fe48a57a49eed98	0.6418874945879223
246	0xc00f1057f443489b	-3.8829802592309313
247	0x40068b9f7349756c	2.818175221137315
248	0xc008b52097ed1789	-3.0884410733442036
249	0xc007c5638a480a66	-2.9713812640414288
250	0xc0083c9bcca2671e	-3.0295940386830713
251	0xc0060e5414461147	-2.7569963058360005
252	0x40060fe60f2522d8	2.757763021775059
253	0xc0063d056eaf60b8	-2.7797955176611957
254	0x400b0d33675c19f8	3.3814457011205796
255	0xc0062be467069015	-2.771431736839086

LSTM.bias_ih_l0 f8 [32]
0	0x401241c4c231ea9c	4.5642271368948535
1	0x400c9ef008e2753e	3.5776062673673144
2	0x4012e2d298263181	4.72150647862543
3	0xc00e03814fba9758	-3.7517114857500182
4	0x401199dc60c5a82c	4.400254737915059
5	0x3ff8bcb97b9fb1ff	1.5460753277831143
6	0x4010840a601dd226	4.128945829219935
7	0xc009bcb547500775	-3.2171426364229156
8	0x3fed69c81d155f90	0.9191628044163611
9	0x4002479f28c602ad	2.2849715409687037
10	0x3ff07eb68c2458f7	1.0309358095451537
11	0xc0109c3f9eab58e1	-4.152586440284922
12	0x400688ece7cc50b3	2.8168581113078175
13	0xc00acdaa8d3b1958	-3.3504229577694495
14	0x400826563f60deb8	3.0187191916882874
15	0xbfff5c06929966f6	-1.9599672056705777
16	0xc010316ceee26880	-4.0482671094597436
17	0x4010ca6c17f4164c	4.197677969239134
18	0x4013c53b495c9cb8	4.9426089728141775
19	0xbfca307dc7f3b426	-0.20460483802108448
20	0xc00e5fec8e01f163	-3.796837911066335
21	0xc005f05f61556769	-2.742369423312017
22	0xc0108334f79602c6	-4.128131741076407
23	0xbf969e6021109b81	-0.022088529604072264
24	0x400e18fddc3a7ec7	3.762202950034268
25	0x4004de07cf8d84f1	2.608413335329367
26	0x40175df95d059b02	5.841771558253415
27	0xc00e820127254e0f	-3.813478761506992
28	0x400fe3e35ad30306	3.986273488583154
29	0x3ff25f15a67faf6b	1.1482140067918987
30	0x400b3b1d1c4ddba2	3.4038641177425726
31	0xc00f6446e9baa324	-3.9239633808214354

LSTM.bias_hh_l0 f8 [32]
0	0x4012387af231ea9c	4.5551565020529345
1	0x400fea9cb8e2753d	3.9895567363843427
2	0x4015085fac26317e	5.258177461463104
3	0xc010e12ca7dd4baa	-4.219896910554704
4	0x400ddd9ce18b5054	3.7332093830719177
5	0xbffd503bc4604e08	-1.832088248342986
6	0x4000a4367c3ba449	2.080182047433969
7	0xc0144226dfa803ba	-5.064601416234774
8	0x400ac78f574557e4	3.3474413698231604
9	0x40069b9f5cc602ad	2.8259875533988947
10	0x401126a35709163d	4.287732467584246
11	0xc0089ea99556b1bd	-3.07747189207859
12	0x40126b3fcce62857	4.604735566661552
13	0xbff7f46f1e7632ad	-1.4971762838278366
14	0x4009935caf60deb8	3.196954126495111
15	0xc006aa44c14cb37e	-2.8331389524013835
16	0xc00fe8f729c4d101	-3.988752676314221
17	0x40120ff7c3f4164c	4.515593587658781
18	0x4011fb249f5c9cba	4.495256891276933
19	0xc00a2ab97c7f3b3f	-3.2708615995719863
20	0xc016dd8a5800f8b7	-5.7163480520813925
21	0xc00a58832d55676a	-3.2932189504326077
22	0xc011a6ea1f9602c6	-4.413002484827933
23	0x3ff5aaf6077bbd93	1.3542385380095296
24	0x40104cb5621d3f67	4.074910672221313
25	0x400efd611b8d84f2	3.873720374351813
26	0x400da05dda0b3601	3.7033040079757034
27	0xc005d25ff3254e0f	-2.727722072196918
28	0x4011cc7f41698186	4.449704191269467
29	0x40024cb0833fd7b7	2.2874460462434985
30	0x400dcf7f864ddba2	3.7263174526701315
31	0xc012ca7670dd5190	-4.697717441089836
