stored_nn_configurations/initial_saved_gdecoder.pth (torch, 2083 bytes, 2 tensors)

linear1.weight f8 [8, 12]
0	0x3fe6b426c374dd3e	0.709491140128115
1	0xbfc2259dc206a407	-0.14177295659945363
2	0x3fd1c4178c5e16f7	0.27759350497977614
3	0x3fde9ca874381f63	0.47831164693388056
4	0xbfe6cb281f206b90	-0.7122994049017155
5	0x3fd24bbdcf86c625	0.2858728911042781
6	0xbfe7cd43e82c3593	-0.743806794607439
7	0xbfdaa99e18e86f14	-0.41660263473907944
8	0x3fbee5849e8c30c8	0.12068966742316711
9	0xbfdfbfaed2389c91	-0.4960743954602061
10	0x3fc552b216981e96	0.16658617118104208
11	0xbfd96f42fb93b35d	-0.3974158722692687
12	0x3fe4ce6b38e61dfa	0.6501976119333783
13	0xbfdd4fbf07a7640c	-0.45799232242058063
14	0x3feb61488e113267	0.8556254172086256
15	0x3fe7f3e2a2d0d915	0.7485211544033371
16	0xbff2025393ebd042	-1.1255679872674738
17	0x3fe3d7b3920107d7	0.6200807429925089
18	0xbfe2fb2fd1dbc770	-0.5931624506758748
19	0xbfc2d6f0cb341465	-0.14718446657221587
20	0x3fe010723552664a	0.5020075837557638
21	0xbfe8146ea06ec635	-0.7524941571666149
22	0xbfe43fdbbdae72d1	-0.6327952103343596
23	0xbff13fc9e5d7cfd8	-1.0780734041445523
24	0x3fe50ca591ccbe80	0.6577937934543598
25	0xbffc297f4cfbf136	-1.7601311690514883
26	0x3fc58062ca3dc0ed	0.1679805266862852
27	0x3fe1ca37b91ba48e	0.5559347739591816
28	0xbfe5dedb6abedffa	-0.68345423554183
29	0x3fa8b9fc8c67aa7e	0.04829396451880984
30	0x3fb7b31e1bba3ebe	0.09257686783734706
31	0xbf964710ae9aaf4b	-0.021755467087742713
32	0xbfedc7bc6692ba4f	-0.9306318286306324
33	0x3fbdb6c575e4fd38	0.11607011917384547
34	0xbffff6d380bab025	-1.9977602985845888
35	0xbfe4203f91aa973c	-0.6289365620657246
36	0xbfd169717bb20e64	-0.2720607479061299
37	0x3fe559ea90d60e9a	0.667226107485891
38	0x3fd9ba45d59b9d4d	0.4019941888822885
39	0x3fc1740dcb4ff663	0.13635418345795633
40	0xbfe28f211b5bbbd7	-0.5799718412725906
41	0x3fe441f774639edd	0.6330525658822485
42	0xbfd773a7a1f6a4a8	-0.36643400971167717
43	0x3fbb143e79362d68	0.10577764949100799
44	0x3fe0238dd5ae31f4	0.5043400929876598
45	0xbfeb8be20aa3b43b	-0.860825558452809
46	0xc00cc233777f9287	-3.594824727612209
47	0xbfe61bd4b3efec5a	-0.6908973230741922
48	0x3fc38f689de06ddc	0.1528139849550446
49	0xbfcab92627f480d8	-0.20877530051166704
50	0x3febbbc700b610f0	0.8666720403566881
51	0x3fdf758aa6dfba93	0.49154917045863405
52	0xbfe6b271d21e4dc9	-0.7092827895998478
53	0x3fe1637cb76dd1e9	0.5433944304082249
54	0xbfec7b309c2cda96	-0.8900378275200918
55	0xbfd4f99e0a0f301f	-0.3277354334102273
56	0x3fe8b1fbf79b5d75	0.7717265926429905
57	0xbfe2d18cfca9ee3a	-0.5880799231376337
58	0xbfc9c2bac14dbf63	-0.20125517309815696
59	0xbfe69eed7cfcd031	-0.7069003525889511
60	0xbfc9097d55202f15	-0.19560209900407047
61	0x3ff2601bdd79995a	1.1484640742651977
62	0x3fd7cc20339c4b6a	0.37183384933557895
63	0x3fd5886e0ce59bab	0.3364520193048814
64	0xbfe75eee608c4257	-0.7303382764531062
65	0x3fdfdcc32babb1d8	0.4978492666694172
66	0xbfca42434f026349	-0.20514718397023504
67	0x3fd4342051f14c74	0.31568153383449915
68	0x3fef34adc4984fa0	0.975180515265027
69	0xbfdb168f06098450	-0.42325187291686905
70	0xbfede4da5edb5431	-0.9341861584349599
71	0xbfe78bac41ab9de3	-0.7357999117493218
72	0xbffa20b79cd90cf4	-1.6329876067036908
73	0x4006e465b8c2dfe6	2.8615221437903413
74	0xbfee1cbcdf290fb0	-0.9410080298043706
75	0xbff403d93d857331	-1.250939598386321
76	0x3ff0a643b06540e9	1.040591897053725
77	0xbfe114eb68d9597a	-0.5338036582786991
78	0x3ff228c651ebd4a0	1.134954757694949
79	0x3fd6fafe67c67a0a	0.35906944402987107
80	0x3fe45ce2b62eeaf2	0.6363385732905427
81	0x3fe3e89c2789a6f0	0.6221447727413913
82	0xbfda3b2b4eb92307	-0.40986139953433603
83	0x3feb4ad4857aab2c	0.8528845412268757
84	0x3fcd579e7ee034b5	0.22923642344577436
85	0xbfc7c7189dab8372	-0.1857634324906275
86	0x3fda55a7fcabc484	0.4114780395021358
87	0x3fdb2b3ff5dcff89	0.4245147610672509
88	0xbfe4e4acc85c9b24	-0.6529144204440382
89	0x3fe793a068822a9b	0.7367708245449934
90	0xbfe1672ad32fd71a	-0.5438436627143546
91	0xbfd6936edecc228d	-0.3527486015087014
92	0x3fc9860ba1bcd5a9	0.19940324208589047
93	0xbfe54fa7408d6aa5	-0.6659733067311505
94	0xbffdebdcb5f60330	-1.8700835330821057
95	0xbfec5a17972dbf3f	-0.8859975769719098

linear1.bias f8 [8]
0	0xbfecf34b23a390a5	-0.9046989151070376
1	0xbfef322affb3f9e8	-0.9748740190696568
2	0xbfc98dd1ffc1dd8c	-0.19964051235340852
3	0xbfe32a1c5995917a	-0.5988904714291003
4	0xbfe4b8fa8e64434e	-0.6475804120146706
5	0xbfdf040cbfb7d22e	-0.4846221801992979
6	0x3fcc1fe67fad21bb	0.21972352251238
7	0xbfe1e91750ee3633	-0.559703500811969
