stored_nn_configurations/initial_saved_encoder.pth (torch, 8627 bytes, 4 tensors)

LSTM.weight_ih_l0 f8 [48, 4]
0	0xbfd19c6b4f8c440b	-0.27517206924773124
1	0x3fe623477e36893f	0.6918065514658237
2	0x3fe0e5907c504e04	0.5280229976655737
3	0xbfeef8f663b41e58	-0.9678909251533225
4	0xbff4bc934d741eee	-1.296038916161645
5	0xbfa212905d7673bf	-0.03529788151647705
6	0x3fb81c4453ea43e8	0.09418131874760116
7	0xbfac7c76065668d4	-0.05563706233370316
8	0xbfea6d69b9ac88d0	-0.8258560778088171
9	0xbfe8141c589ca1ef	-0.7524549227428546
10	0xbff7bdcd526caa91	-1.4838383884149702
11	0xbff0b1abb3a0649b	-1.043376638094094
12	0xbfc13a36d9108feb	-0.13458905791151152
13	0x3fa9500d2319660b	0.04943886807877725
14	0xbfe519a2100cd5fb	-0.6593790353278445
15	0xbfd377c963f18fc5	-0.3041861988078803
16	0x3feb52b9763bc909	0.8538482007263904
17	0x3fd9215b638f54f1	0.3926609489693212
18	0x3fea47bcde18fe95	0.821257051262324
19	0x3ff2f0658de04830	1.1836905996356215
20	0xbfdf1fcd29f9a28b	-0.486316004744858
21	0xbffda049393cf17a	-1.851632331453486
22	0xbfd7d0379ba2f53c	-0.3720835704696872
23	0x3fecc9a8d7250a6f	0.8996166421932922
24	0x3fd38afce1a79550	0.3053581432016772
25	0xbfe797d5e1bbc38a	-0.7372846039635175
26	0x3fd483831e75ea29	0.3205268666712607
27	0x3ff10d8e9e691d72	1.0658098400034217
28	0xbfb0ca1ef4facf2d	-0.06558412056875502
29	0xbfb2640fcafe1b2b	-0.07183932023881982
30	0xbfcdec65106bdab2	-0.23377669622251102
31	0x3fc1e3d39cef2156	0.13976521647260637
32	0x3fcc549fb062552b	0.22133251297479126
33	0xbfd3cec673b04fdc	-0.30949555680967733
34	0x3fd54d42d6e05c9b	0.3328406427767249
35	0xbff44e3b0c44f97b	-1.269099281241863
36	0x3fed74237a562e3b	0.9204270734202916
37	0xbfee662b229deb09	-0.9499717403517433
38	0x3fecb20e59da73a3	0.8967353587100785
39	0x3ff401afa553700c	1.2504116495174484
40	0xbffeb2594a03c34b	-1.918542183990399
41	0xbffe84e11368f743	-1.9074412115291615
42	0x401096ebc3792b77	4.147383741636864
43	0x3fed5dc843a40512	0.9176980324847668
44	0x3fecc07a1770880e	0.8984957177929134
45	0xbff76133b0025d32	-1.4612309337006306
46	0x3ff003a45adcba2a	1.000889162951021
47	0x3ff5fd63eac4bdca	1.3743628664632177
48	0x3fdcc58ba1a021ea	0.4495572164892382
49	0x3ffc58b750d0f358	1.771659198463757
50	0x3fb17b89c8294910	0.06829129349469931
51	0x3fe285ad52c4b3f3	0.5788179985589735
52	0x3ff1df1e1f66cf48	1.1169720865845694
53	0x3ffc1ebb42b8c691	1.7575028044051673
54	0x3feac70b96910fc4	0.8367975178484746
55	0x3fb1f43dfc7e16df	0.07013308920258109
56	0xbfe3bf28709d52d4	-0.6170847129347643
57	0xbfe05d70189e7f77	-0.5114059906809264
58	0xbff2b822485581ee	-1.1699545693919577
59	0xbfee2eac3853ff75	-0.9431973552855043
60	0x3fddc743f67a1a0d	0.4652871996881068
61	0x3fb1aa15f1c54a78	0.06900155212978543
62	0x3fb33df246f2943b	0.07516397697561754
63	0x3fd2f63bc50fc7bd	0.2962788986616223
64	0xbff2dd40ad8679cd	-1.1790167597133518
65	0x3fd00aed9eed341f	0.2506670047776555
66	0xbfcd2cfaa6deeb68	-0.2279351534651497
67	0x3ff95766a9e0da6c	1.5838381420013787
68	0xbfe2f81f32f944f3	-0.5927883143978349
69	0xbff79ea9ecaa0009	-1.4762362713518107
70	0x3fe8a442cb39306e	0.7700513810355127
71	0x3ff16332d1426925	1.0867183851428959
72	0x3f92ca47c5d991e1	0.018349763346479867
73	0x3fbc9853b0ef8feb	0.11169932431909017
74	0x3fdd56849596dfdb	0.458405634005883
75	0x3fc6d4505fd4dac5	0.17835430793066656
76	0x3fdd228ec0e2ef90	0.45523423039025435
77	0xbfe7ee1fe37a03f9	-0.7478179400351329
78	0x3fe0b728a8ba9d13	0.5223582549560056
79	0xbfea50e6dc9a55bf	-0.8223757084512541
80	0x3fca13dc385d7f1d	0.20373108627517747
81	0x3fe98765285c2ff6	0.7977777279170357
82	0xbff4c6f4f56df605	-1.2985734545794696
83	0x40059cf8662ce888	2.7016456587271627
84	0x3feedf52e7e066f0	0.9647612122382423
85	0x3fd9341ae41f097d	0.39380523946251583
86	0x3fe6a3e728b4e7be	0.7075076861431098
87	0xbfe3b18cabf89f28	-0.6154235228359299
88	0x400e607da4d2a2be	3.7971146466046255
89	0x4002512afe235914	2.289632783368811
90	0x400fbf8600173e84	3.968517304143292
91	0x3ff91608b8199c05	1.5678794089706127
92	0x3fe005b6a3ad3f85	0.5006974407969983
93	0x3fcde9b6c6efb875	0.23369488443080724
94	0x3fe00a7207edc5ce	0.5012750773295751
95	0xbfb5ec64bd1cacbd	-0.08563832871429873
96	0xbfd3172b8adfc473	-0.29828918992922765
97	0xbfeaf9a91fb24b86	-0.8429761523315029
98	0xbfe320c56211c1e4	-0.5977503695885926
99	0x3fe24714f137e192	0.5711769782347338
100	0xbfd0b65e1dd8387f	-0.2611308375788965
101	0x3fa8d5fdba39dadf	0.04850762270227959
102	0xbfa8bf60bc57342c	-0.04833509730415417
103	0xbfef8e2c10e33b4c	-0.986104996665611
104	0x3f746864e9b68456	0.004982370558907231
105	0x3fd589f415a59061	0.3365450106996431
106	0x3fa88fa46ecc7e49	0.04797090389751852
107	0xbfb8a3f988998a46	-0.09625205597834804
108	0x3fd97fbe4d36fe3f	0.39842183628568145
109	0x3fb93ad464a0804a	0.09855391937935667
110	0xbfb2c0f66d3c805f	-0.07325687567618065
111	0xbfca842fabd65326	-0.20715900316704355
112	0x3fdefbff060001cc	0.4841306265443819
113	0x3fd92e5de87e00b2	0.39345500664058897
114	0x3fe16d33d8c63898	0.5445803865311687
115	0x3fe14a1ac350a1c4	0.5402959646935916
116	0x3fb96ecc8d08bec6	0.09934690898148366
117	0x3fdc5786fd64ff9f	0.44284224267539146
118	0x3fb976ee0943bfce	0.09947097517192491
119	0xbfaa5211633be454	-0.05140737854339564
120	0x3fd4edc003f71bcb	0.32701111209138095
121	0xbfd606878b84b08a	-0.34414852738223856
122	0xbfa62dd2ca375c22	-0.04331835478267744
123	0x3fd731b73042da8c	0.3624093982029215
124	0xbfd9bf80322fb581	-0.40231327916156806
125	0x3fd155a7ecc76667	0.2708530247015006
126	0xbfe198b4e6bf5edb	-0.5498909479892647
127	0xbfd615cd36075e87	-0.345080664408194
128	0x3fec4bca8ecee862	0.8842518605445202
129	0xbfd12642bd34cd3f	-0.2679602477757789
130	0x3fd4a545a8ba4b92	0.3225874088031385
131	0xbff2bc9d9bd5c078	-1.1710487448981706
132	0x3fe7a43b80ede861	0.7387979047919196
133	0xbfd29f0830a2ebc1	-0.2909565424885692
134	0x3fe8a8960f55ca5f	0.7705793666376158
135	0x3fe81334bde0b5ef	0.7523444851446451
136	0x3fe41b2a076e6d5c	0.6283159394401241
137	0xbff948cb850fabb6	-1.5802722165778795
138	0x3fffcdc4018aa90d	1.9877357540340796
139	0x3fe9cd90eb66f35b	0.8063435170839556
140	0x3fdd5ca662780813	0.45877990356541537
141	0xbfe8bf69f6858816	-0.7733659567713882
142	0x3fad59b5ed72f455	0.057325062976339915
143	0x3fdadf9687da16d8	0.4198967291525668
144	0xbff68ab8faaede1f	-1.4088678161914527
145	0x3fef56a2de2b75e2	0.9793257083180686
146	0xbfcfd09660aeea4d	-0.24855308266508516
147	0xbfed8806e4c6e50e	-0.922854849653193
148	0xc00a09d9f7cedd46	-3.2548102722172727
149	0xbfc5d8c2c065c8fc	-0.17067751306928602
150	0xbfa4e9b96c119530	-0.040845674936273446
151	0xbfd10dddd81dcefe	-0.2664713488113505
152	0xbfdd466cffcf6a1f	-0.4574234483858692
153	0xbfdb83e506480716	-0.4299252091733349
154	0xbfe8cc977bad0bd9	-0.7749745765253194
155	0x3fe8e153c3084d9f	0.7775057610728487
156	0xbfe19f5e18b3c2bd	-0.5507040483917859
157	0x40035516d8eb5e18	2.416547484095428
158	0xc008c349f4e5d8ce	-3.095355904831286
159	0xbff6ef88e1e27485	-1.4334801505677046
160	0xbfbebfd6fca48133	-0.12011474292785777
161	0x3ff52200640b385e	1.320801153942305
162	0x3fd609ec275c03a8	0.3443556198472444
163	0x3ff22ec138b8cede	1.1364147391986346
164	0xbfd93044c2826914	-0.3935710811143889
165	0xbff05ceb94aab438	-1.0226856047913895
166	0x3ff9d31ba1631e70	1.6140400222956508
167	0x3fecd9220b920629	0.9015054918274404
168	0x3fffedcfe67055cf	1.995559597159957
169	0xbfe83d066af35ee9	-0.7574493492965902
170	0xbfcf7aef7678058b	-0.24593919071780265
171	0x3fd84f3905fbb32d	0.3798353727750506
172	0x3fe8c4f73abdda04	0.7740436694428472
173	0xbfe18529df31807e	-0.5475053176160285
174	0x3fe096725cc01dfe	0.5183650790722252
175	0xbfc226b5c54fe1d0	-0.14180633673073695
176	0x3fdffd5b18499641	0.4998386132413977
177	0x3fee8abb12bf325e	0.9544349065923361
178	0xbfb6f28fa8c76fb7	-0.08963868971426235
179	0xbfd27c81d98508d9	-0.2888493179526797
180	0xbf82b8738c6b005c	-0.009140875551907061
181	0xc00b540cf78eea6e	-3.4160403576363967
182	0x3ff3413d0b9fb577	1.2034273580605637
183	0xbff947437a92dbbd	-1.579898337176686
184	0xbff0b3f9bb25fc26	-1.0439393339618248
185	0x3fcbb5fae220e2c4	0.21649108926228255
186	0xc0005086cae076b1	-2.039319596266829
187	0x4002cb24f38b721a	2.3491915728502706
188	0xbff3cbe8d4a58f46	-1.2372825914871597
189	0x3fcd9f8f8de023f6	0.23143190791623142
190	0xbffc593708ff4cbe	-1.7717810012298254
191	0x3feee5dd2a2e0d10	0.9655595611406245

LSTM.weight_hh_l0 f8 [48, 12]
0	0x3fdb22c1ebf9b99e	0.42399642986756614
1	0x3fedaa6bb9419fed	0.927053319767763
2	0x3fcab19a91f66561	0.2085450375277942
3	0x3fd0cc4a03abd3b7	0.26246881826892426
4	0x3f9643c6b6f56f53	0.02174292079631297
5	0xbfa45d26681e95ae	-0.03977317830075876
6	0xbfe326a46ff8ee04	-0.5984670817337592
7	0x3fb4b1511d6adadb	0.08083064048956194
8	0xbfeae1bb82fb8d7a	-0.8400552328352398
9	0xbfc4f541948229ac	-0.16373462439908104
10	0x40144c4e76f8abd7	5.074518069198311
11	0x3fd2935c6cdb41ac	0.290244203858516
12	0xbfd25d7ae64237b8	-0.28695557104299096
13	0x3ff0ea216b33d557	1.057160776862778
14	0xbfc115d42ad3d81e	-0.1334786614531262
15	0xbfe0e4f5ed27f364	-0.5279492980913401
16	0x3ff30b88d45e5392	1.190316037716205
17	0xc0085d250b655405	-3.0454808130548394
18	0x3fe3c86d5fbb2bb0	0.6182162160633791
19	0x3fc8bb7b9a4856b3	0.19322152169541126
20	0xc0012d17cf1855a4	-2.1470180682469664
21	0xbfb72af0c029e2d4	-0.09049896899694981
22	0x3fd063db2be13ae2	0.25609473500382596
23	0x3ff2a336b73878ff	1.1648471028379956
24	0xbfb9ce8cd18321ea	-0.10080795397801237
25	0xbfd7cfaafc300730	-0.3720500433702112
26	0x3fa5d1b68fbb14b4	0.04261560921217136
27	0xbfde4a3c700e621e	-0.4732810110377005
28	0xbfd60223a7bd92b5	-0.34388057118330134
29	0x3fd1f02d04ba0292	0.28028417073805045
30	0xbfcac13ef1953e1a	-0.20902239604991807
31	0x3fe702157d3b4569	0.7190043874672202
32	0xbfd4b01bfa072fb0	-0.32324885765842293
33	0x3fcc782a9d640d95	0.2224171894559787
34	0xc0004be7a3b64939	-2.0370629110340386
35	0x3fb483a37fa7e908	0.08013364664649114
36	0xbfd4b11d8b134569	-0.3233102663189898
37	0xbfdaf6added30308	-0.42130610237295274
38	0xbfe251d960d0d736	-0.5724913493092803
39	0x3fd21fd7df7d7ed9	0.28319355797974094
40	0x3fdebcb2b6e1255a	0.4802672182018647
41	0xbfdca96aa8bac06f	-0.447840370917226
42	0x3fdb0f14a2bb462a	0.42279544727088825
43	0xbfc851be8ae83014	-0.18999463827674445
44	0xbfba2703ea9649bd	-0.10215782620642862
45	0x3fd60018bf560178	0.34375590024139724
46	0x3ff26cf6db70ee12	1.1516026088637585
47	0x3fd63f930639d0d3	0.34763026817314574
48	0xbfded738b998b2c0	-0.48188608288436896
49	0x3fd7c65a1be8ad5b	0.37148144460180327
50	0xbff0971c62f1c725	-1.0368923058526403
51	0xbfdc511316c2311c	-0.44244839880481535
52	0x3fd9bf926e40be77	0.40231762663731935
53	0xbff215f810281c50	-1.1303635245437995
54	0x3fe3e5496b4d021c	0.6217391105383885
55	0x3fd3d8d823a40db8	0.31011012535619953
56	0xbfd774ef097c795e	-0.36651206900014255
57	0x3fe091e32dfaa831	0.5178085229902135
58	0x3ff1519869be4c68	1.0824207430457822
59	0x3fe889519f9a7ffa	0.766762553907028
60	0xbfba2c3e717fde20	-0.10223760863288378
61	0x3fead3e647faafb8	0.838366642555676
62	0x3fc89433791c4b83	0.1920227376327511
63	0xbfd719c5e1d85df0	-0.36094805770105065
64	0x3fbbcc8c73db860a	0.10858991459419812
65	0x3fcc18a45d9269b1	0.21950201577130948
66	0x3fc7c6400b90e82c	0.18573761524913956
67	0x3fe335a90a0a5ece	0.6003003307441419
68	0x3fd02f0bdf86001d	0.252871483120545
69	0x3fd4aba2906f7f89	0.32297577004464323
70	0x3ffca957ecea0ec9	1.7913436178650264
71	0x3fdc4ac480a4fa8c	0.44206345141348247
72	0xbfe2f80058655561	-0.5927736021500715
73	0x3fe3d9832b4dca18	0.6203018041399586
74	0xbfb774c82c7bf187	-0.09162570081747932
75	0xbfe40bad16b57a69	-0.6264253085644899
76	0x3fafae7d67af77b6	0.061878127009307546
77	0xbfd10e7ed7b34253	-0.26650973381496107
78	0x3fcae0798e09b463	0.20997542796559107
79	0x3fe181217e018fb7	0.5470130406433701
80	0x3fbbaa2a8a65aac8	0.10806527975880009
81	0x3fc4756274c97f18	0.15983229353423023
82	0x3fe7f44e6c73ecea	0.7485725515574846
83	0x3fdd47b0ecbeeaed	0.45750067825035395
84	0x3fe1ecd02d013766	0.5601578597067884
85	0xbfb62cf4a09d357f	-0.0866234676479589
86	0x3fe7185adc39fee3	0.721723013048145
87	0x3fcc9ead5359bc4b	0.2235924393639571
88	0xbfe29bacc0855eb4	-0.5815032730269736
89	0x3fe7510bfedf9d58	0.7286434152601187
90	0xbfe727f9d537fe00	-0.7236298717907061
91	0x3fba04f92e06eeaf	0.10163838742931362
92	0x3fb519dabbe37322	0.08242575728531823
93	0xbfdfb542cddef863	-0.4954382906397596
94	0xbfedbfa954f54ef7	-0.9296461734142828
95	0xbff0826e319169a4	-1.031843370080062
96	0xbfec1b021eaeceee	-0.8782969092630688
97	0xbfed3c935f229dff	-0.9136444910154181
98	0x3fdb44d002bd6ab8	0.42607498424119283
99	0xbfe80401bbef52a8	-0.7504891081431042
100	0xbf994cc4dae261fc	-0.02470691286052505
101	0x3ff096cc91e0309e	1.0368161867400327
102	0xbfd9621b6fa056e4	-0.3966129865742529
103	0x3fbf31e2355cd5c2	0.12185491373823878
104	0xbfead8162f9eef8d	-0.8388777666182122
105	0xbfd42a34318c5d5b	-0.31507592047406313
106	0xc00ced3fae463d25	-3.6158441176591105
107	0x3fe2624e0877b8bd	0.5745000996955906
108	0x3fea3477e3b4a5ed	0.8189048240066633
109	0xbfe6ffe0775bdf05	-0.718734963534161
110	0xbfe26ea9a009a90f	-0.5760086179482488
111	0x3fe09cb1b0a5de1c	0.519127697959394
112	0x3fed98e049077ef9	0.9249116350510739
113	0xbfebf9218fc9f259	-0.8741615112663325
114	0x3fe84cb5fe749e54	0.7593641252360137
115	0xbfebd69ee311fd74	-0.8699488100973398
116	0xbfc98d381eb90137	-0.19962216854220013
117	0x3fe7f63a23654ef7	0.748807019359872
118	0x3ff1949c5c25adc3	1.098781928968365
119	0x3fe7984d8c0168b2	0.7373416647417541
120	0xbffeeeea1082ca81	-1.9333286900479438
121	0x400151f49e9835aa	2.1650173559380237
122	0xbfbe989628a49977	-0.1195157860971444
123	0x3fe84fe1818d2d48	0.759751084356517
124	0x3fe444d3479af752	0.6334015272657132
125	0xbfed36fd11376f59	-0.9129624687443353
126	0xc0103b71d135de66	-4.058051365769279
127	0x3fb719d2680963a0	0.09023776092489166
128	0x3ff05777a81a0193	1.0213543478458618
129	0x3fc4d7c7a832b461	0.162835080268823
130	0xbfb3fcd1c58fba45	-0.07807646821286436
131	0x3fe39562089ea9b6	0.6119852226595899
132	0xbfdf8a2bdf469805	-0.49280831150315435
133	0xbfc518d6124fe79d	-0.1648204411902129
134	0xbfddf0b7621c8d9d	-0.46781715947346375
135	0x3fd40753033c806a	0.31294703784988676
136	0x3fea0d1be120de64	0.8141002080000814
137	0xbfd1385b62b70875	-0.26906475677618086
138	0x3fe8ec3ff6509de5	0.7788390932882377
139	0xbfd9b78845ecc744	-0.4018269236431602
140	0xbfaf4f9f2be6c675	-0.06115434084803165
141	0x3fe40d2af51c0b19	0.6266073977752483
142	0x4000e93170bf0f30	2.113863831358593
143	0x3fef665e8efb6ec9	0.9812462608928963
144	0xbfd2c83df8c71bec	-0.2934718064756783
145	0x3fdc539e9c0fd8ff	0.44260373344822307
146	0x3fd901c28db1f136	0.3907324203244288
147	0x3fe2630a59d63a0b	0.5745898966432049
148	0xbfe81f413e0628b1	-0.7538152896315947
149	0x3fded1a3c8d4fc02	0.48154539692399123
150	0xbfdcc1c027e365f7	-0.4493255986722881
151	0xbfbf5b4dba2266dc	-0.12248693270012317
152	0xbfb42b4837250bee	-0.07878543230349042
153	0xbfd0e2519b811909	-0.26381340204206133
154	0x4004cf677dca87f9	2.6012716128761864
155	0xbfd0f089a2b76196	-0.2646812523867309
156	0xbfc76df9a3f6595e	-0.18304367547961936
157	0xbfe84077d4164839	-0.7578696386647216
158	0xbfeb3711c9df076d	-0.850472349433614
159	0x3fa0900579cc6e6f	0.03234879600333051
160	0xbff375c9648225a2	-1.2162565160855157
161	0x3ffd727e0e617015	1.8404522477858383
162	0x3ff6afc53719f0fc	1.4179126884837947
163	0x3f9605d385b4d0f9	0.021506600414071795
164	0x3fe336de414ebfc1	0.6004477763690305
165	0xbfe24d81a4104fb9	-0.5719612316483939
166	0x3ff6c220cda10fd7	1.422394564856395
167	0xbf5e44a3efcd6050	-0.001847419828854075
168	0xbfc0bd0d05e29578	-0.13076937472684924
169	0x3fe915c33fa87c54	0.7839065783808885
170	0xbf971269045f9428	-0.022531166927269336
171	0xbfe5af71d740d05e	-0.6776665882266675
172	0xbfcb79399186bf31	-0.21463698964861913
173	0x3fc8446e3e0daf10	0.18958833723024116
174	0xbfa90c73ec15e278	-0.04892313248541752
175	0x3fe13190636361c4	0.5373002949882495
176	0x3fd074e660e9d998	0.2571350046559018
177	0x3fa8ea75c8851659	0.04866378853561732
178	0x3fd6fc584b5079e9	0.3591519103519248
179	0x3fbb2af005e7993a	0.10612392563016196
180	0xbfc90cf092b98bbf	-0.19570738949104613
181	0xbfc3dae6eddd59fb	-0.15511786093220778
182	0xbfd1c95779c88d25	-0.2779139222422649
183	0xbfd99dba988fbb06	-0.40025200747088296
184	0x3fd659f1e71f3c6a	0.3492398030329641
185	0x3fd6811bbb2217ac	0.3516301467392349
186	0x3fb94a77c948b11f	0.09879254020842552
187	0x3fd995683864df4a	0.39974408633451175
188	0x3fc576da721b3db3	0.16768961497880994
189	0x3fa510f05ee6537f	0.04114485891765351
190	0xbfc77d36efd893f2	-0.18350874625426133
191	0x3fccf436a794a5aa	0.22620280439995827
192	0xbfe611a7fae61461	-0.6896552944532567
193	0x3febf50a85bdc7e3	0.873662244046724
194	0xbfe1f0c891f6de9a	-0.5606425143113996
195	0xbfe4500f47a6b1f3	-0.6347729110180452
196	0x3fd85682c9ba26bd	0.38028020572583526
197	0xbfdba1974c058493	-0.4317377321622839
198	0x3fd60b521ad02d36	0.34444096201396535
199	0x3fe1e14a33b7e2e0	0.5587512025950581
200	0xbfca6b391f57e658	-0.20639719038426807
201	0x3febe6a75a916568	0.8719059723763793
202	0x3ffde9c7c79421d1	1.86957529030234
203	0x3fe3ad645db3f622	0.6149160223137111
204	0xbfd577bfbfca221e	-0.3354339001603267
205	0x3fec4b65ba846a2f	0.8842037814059206
206	0x3fd0369eb3707c27	0.25333373568895684
207	0xbfdd5f8dcfb843d5	-0.4589571503175283
208	0xbfd6a774fa31c4cf	-0.3539707606606272
209	0x3fcd6a90ae6f589f	0.22981461064654682
210	0x3fcbc88e4a342027	0.21705797789786738
211	0x3fe6f49eaa299479	0.7173608134732056
212	0x3fd3027032c877b3	0.2970238204887849
213	0x3fcb5b0b1143c260	0.21371591895105535
214	0x3fdc771315fb171c	0.4447677340179881
215	0x3fa9813dad766406	0.04981415502988544
216	0xbfdcb58949b1ee75	-0.4485800952604458
217	0x3fe8384a9d016fd5	0.7568715158954499
218	0xbfb852851f87be81	-0.09500915546208867
219	0xbfe9541d4bf12eef	-0.7915178759808138
220	0x3fd82199ca269eef	0.3770508264665144
221	0xbfc46c5cf8c5d72e	-0.15955698153600778
222	0x3fc3f32ce9c6f69f	0.15585862555410743
223	0x3fda9fcce9a83889	0.41600344484403046
224	0x3fa8d9ff91f1585c	0.04853819519546285
225	0x3fac1b2b62a0f10e	0.054894786634095735
226	0x3fe4c36d28e80017	0.6488557623815748
227	0x3fdc3046cc226b37	0.4404465669155572
228	0x3fe5240de412376f	0.6606511549486934
229	0x3fd6fa4dd11bb092	0.35902734204024356
230	0x3fe2e1a2c2421a70	0.5900434297662525
231	0xbf9c7138b1b074b8	-0.027775655598919896
232	0xbfe8fda6ae359f62	-0.7809632685211734
233	0x3fe6dc49f70f1f70	0.7143907380459336
234	0xbfe4aa6b08806b07	-0.6458029905364534
235	0x3fcfb09f1eb44c82	0.2475775623248389
236	0x3fdd93c375b52d0c	0.46214376921553035
237	0xbfdba9cf1ced24b8	-0.4322393209918789
238	0xbfe595b337299f0e	-0.6745239331621364
239	0xbfedab7b8ac3e6b6	-0.9271829328783585
240	0xbf9d9fc5fe7a0c4c	-0.028929799706485945
241	0x3fe9b9c7c5490e7e	0.8039282658796336
242	0x3fee9637fa805acc	0.9558372395138917
243	0xbfd44bc9ca71585d	-0.3171257473926568
244	0x3ff5f94115c35bef	1.373353085529512
245	0x3fd81e27cb2bd834	0.37684054223007313
246	0xbfe7f361339b5b50	-0.748459435267117
247	0x3fb0035201ab976c	0.06255066433695128
248	0x3fe4c82e78ab3e69	0.6494362217726578
249	0xbfd829e75f40b1e1	-0.3775576048090255
250	0xbfd98d9a7671f3bd	-0.3992677838030508
251	0xbfe7f975533335a1	-0.7492014527321552
252	0xbfe161a5197746ff	-0.543169545877589
253	0x3fe5d746801cb34a	0.6825287344159758
254	0xbfe23a8512e402bf	-0.5696435326536501
255	0x3fdcb1a88abb6109	0.44834340618173535

LSTM.bias_ih_l0 f8 [48]
0	0xbf86a450059cfffe	-0.011055588885596986
1	0xbfe434cb4b8ae700	-0.631444594902149
2	0xbfd0339ee49a9ec3	-0.25315067600829994
3	0x4003cbc3d5e0ffb4	2.4744946202553937
4	0x3fb23f72ff27503b	0.07128065804801136
5	0xbff6c7216ca41dfe	-1.4236158603470126
6	0x3fe84e0cb05b639c	0.7595275349113879
7	0xbfb7cca20eb34e49	-0.0929662023439103
8	0x3fb1f35fcd75b95c	0.07011984602079252
9	0xbfe3cc5564194faa	-0.6186930613571253
10	0xbffa5666d7e89623	-1.6460941728522662
11	0x3fd1b1fe8b454015	0.27648891068111087
12	0xbfc1434fd38b5022	-0.13486669377619004
13	0x3fbeb29cd78bdc89	0.11991291296350161
14	0xbfded05b09fb6424	-0.4814670178871572
15	0x3ffb0693eb1db64f	1.6891059097501004
16	0xbfebd6609ed8069a	-0.8699191191119156
17	0x3fd9d8e99309491e	0.40386428221713
18	0x3fe52ad24bb922b2	0.6614772299736471
19	0x3fd59ab164512a6e	0.3375667075785377
20	0xbfe6d554fc8caf2e	-0.7135415012939796
21	0x4004343b31a23d77	2.5255035283695935
22	0xbfb12461746704aa	-0.0669613751588424
23	0x3fef74f0a6a8257e	0.98302490759049
24	0x3fc0e6167621b0cd	0.13202172058243491
25	0xbfcb7552d9638447	-0.21451793303188735
26	0xbffec2f9dcc1e4bc	-1.9226015685401725
27	0xbfcfe34e8d094c3e	-0.2491243542341141
28	0x3fd635af51c1fa54	0.3470266626754086
29	0xbff1923c8089bf15	-1.0982022305506167
30	0x3fb2ac0fbfce29ca	0.07293795044657894
31	0x3fd0929dd6e69309	0.25894876467127453
32	0xbfb96b808baa5289	-0.09929660234258554
33	0x3ff2cac398db3399	1.174502942175627
34	0x3fe176c627142185	0.5457487834219569
35	0x3ff8408305742152	1.515749951651817
36	0x3fd39968d54a1798	0.3062383730797307
37	0x3ff5ce30ba13c401	1.362839438308811
38	0x3fbd101530aa8442	0.11352665365349515
39	0x3fff3facb8066691	1.9530455769039785
40	0xbfb6238d85672848	-0.0864799929323975
41	0xbfe993ed05db6ed3	-0.7993073572538044
42	0xbfe26546b79f6d55	-0.5748628221876212
43	0x3ffac7f37827dbd2	1.6738161748487426
44	0xbfc090f171793d65	-0.12942331352904116
45	0x3feacad705d9ccc3	0.8372607340119419
46	0xbfea8af146b09e4b	-0.8294607525503549
47	0xbfd771f967ffa0e5	-0.3663314357386425

LSTM.bias_hh_l0 f8 [48]
0	0xbfee41a820167400	-0.9455147387230909
1	0xbfd3fca15715cdfd	-0.31229432587062417
2	0xbff220a80126a7b1	-1.1329727215729515
3	0x3ffb4a31cbc1ff68	1.7056138953484723
4	0xbfd5678200362bfb	-0.33444261570610906
5	0xbfe347e079483bf4	-0.6025240296165735
6	0x3fe71220705b639b	0.7209627336952623
7	0xbfff086030eb34e8	-1.9395448599710168
8	0x3fc5264ee6badcb3	0.16523157373533123
9	0x3ffa29c33df35826	1.6351959629005335
10	0xbff2371a87e89629	-1.1384530362059968
11	0x3fe5703db5a2a009	0.669951300388676
12	0x3f7fcfed8e95fb3f	0.007766654927194249
13	0xbfc337e6343a11bb	-0.150143409253486
14	0xbfb6584167ed906d	-0.08728417193703004
15	0x3ff575bfab1db64e	1.341247242376443
16	0x3fe5a6b43b27f966	0.676599612750391
17	0x3ff1aebd74c25241	1.1051611481572226
18	0x3ff0270205dc9157	1.0095234135597673
19	0x3ff0dcc2a9144a99	1.053896580186722
20	0xbff5562c2e46579a	-1.3335382278068892
21	0x3ffe9052a3447aea	1.910235059512781
22	0xbff126219f467048	-1.0718094083486154
23	0x400a329af9aa0962	3.2747096543327396
24	0xbfe76dd6a27793ca	-0.732158009832909
25	0x3fd90501a34e3ddd	0.39093056629005024
26	0xbfd39da0230792ef	-0.30649569912775027
27	0xbfe2160cbf42530c	-0.5651916251686955
28	0x4000bb330a383f4b	2.0914059446730895
29	0xbff86d854089bf14	-1.526738407232135
30	0x4001ba2bc7fe714c	2.215903818562003
31	0x3fc6db8b4dcd260b	0.17857495592970482
32	0xbfd66ca042ea94a1	-0.35038000616834536
33	0x4001e4d2146d99cc	2.2367288204143048
34	0xbfe7ca8698ebde80	-0.7434723841424358
35	0x3fe88edff2e842b2	0.7674407715113232
36	0xbfd78193aab5e86e	-0.3672837416739928
37	0x3fa9324872787fa9	0.049211753819917554
38	0xbfe8f02609eaaf7a	-0.7793150132833795
39	0xbfcb2cf7bfcccb36	-0.21230980744584266
40	0x3fc1c61c7d4c6bcf	0.13885837667552756
41	0x3ff2c9464d12489b	1.174139309940563
42	0xbff1b74edbcfb6ab	-1.107252939832885
43	0xbff9a474a7d82431	-1.602650313989454
44	0x3ff701e567d0d852	1.4379629187874525
45	0x3ff1f062e2ece665	1.1211880554459637
46	0xbfc069399ac27900	-0.12821121269821134
47	0x3fc669c23000be46	0.17510249465839162
