stored_nn_configurations/initial_saved_gdecoder.pth (torch, 5859 bytes, 2 tensors)

linear1.weight f8 [64, 8]
4.284742749199456 -0.5232119558686141 -1.0117958674648286 3.0345173723016567 -0.7624428755680687 2.6530318456580697 2.6320516209027094 2.6558057089404183
-3.441747858707256 -2.7053855124239385 -2.6835210519647577 -2.646596142130878 3.325515671095939 -3.781354384897236 2.910736362283815 -2.793377544834216
-1.736286467456263 -4.875878724324489 -4.652412971286548 -2.7699174169446765 4.661492483954168 -1.9590401567261013 4.688027221167953 -3.2024932781244613
0.1365282510835833 -4.242400310550884 -4.8314986638503905 -3.0498297105831904 4.217444158486565 -1.0214928959363414 4.4564561319329075 -2.666824638194745
5.2646497596435315 -3.2332655626974693 -3.1928502656616793 2.8008912632161165 2.4755666906519624 4.836977158822987 3.842649308762073 2.731248633350232
7.3748555143290595 -2.976210079884372 -2.6296741868337197 3.185595394954438 0.4541625286888706 5.561547089424879 5.643195500741543 2.9405741945567607
6.1131580760538835 -3.2264371731962487 -2.867231201014332 2.974604592483816 1.3520546780380387 5.045967907642009 4.412312860090058 2.941291103337356
0.99010781747017 -3.8486567969025147 -4.519085132848208 -2.8989584033990643 4.377803050746832 -0.5093201236652868 3.9223488030423654 -2.5814980789593704
2.918426370612074 -4.4267432266131195 -4.325962460666423 -3.0135324892308075 4.886690808620495 1.9403082253931954 4.691500095682536 -3.120441256203314
-2.797076248456089 -2.363675165814067 -2.8563036510278894 -2.806884862508968 2.6743887348867927 -2.7215044574694196 1.9360862789523787 -3.323052386803985
5.272301401639816 -3.3341512465868317 -3.0993650023319863 2.8105955306280905 2.232789591870854 4.946485293186838 3.614813344795828 3.0899296616823464
5.979629346247509 -2.636015574696955 -2.8585089464227016 2.67602945130595 0.9216803534504814 5.534217859160958 4.677084094630222 2.737293936544824
5.014968614173768 -3.8191026851847543 -3.797676353722817 2.9877178805155724 2.89800804793276 5.0780655185850225 3.6046333541899553 3.0964050042021625
-2.7485425840416067 -3.216299241786051 -3.753869731470516 -3.133888637873955 3.415533272154781 -2.504441361011246 4.886803315499639 -2.682543436273836
-2.1718796900209028 -3.197923793539221 -3.671331483712941 -3.093070117153811 3.2026037133644927 -2.545353515662615 4.269452296547406 -2.7896575247462825
-1.6030944704441834 -4.891837641455614 -5.035126425507901 -2.9102924434903574 4.24223986965509 -1.9607916403041021 4.850624579579624 -3.327911189761688
2.3055321990975592 -1.8654962145613823 -2.755679472149512 -3.2560724670478227 2.806448536655059 0.7719520511060305 2.037490385446504 -2.747115707671912
1.3145123922261408 -2.5131057481675634 -3.234337452127429 -3.253955098868876 3.3116337845580217 1.5104284297872939 2.844822905532871 -3.0428865853578086
0.27032225149228234 -2.317692732464778 -2.9184087239061705 -3.143687240869564 3.0740506685932036 -0.05670475929522269 2.5862343961243703 -3.0009641052222
1.8197979567015647 -2.8832507852009828 -3.829443501614689 -2.66601709024372 4.039180209334814 1.2923857935830558 3.4380516893674464 -3.335048836559273
1.7062718713209448 -1.6414367666135898 -1.939264911416679 -2.948433802192588 2.248042508947463 -0.47531231259405443 1.5931258331610039 -2.777878619346419
1.7522297179551423 -2.591030712141044 -2.545886455034862 -3.0231614631076758 3.3402256448092245 1.2695382321963942 2.2962538105019377 -2.95837926699491
-0.35857672538482444 -3.225933365146415 -3.846211535124432 -2.812969874433218 3.964060236045422 4.053872608876939 3.2489074672323 -2.7108332520174945
2.6506341125713706 -2.6273897655613156 -3.9923353318277166 -2.8359236555191396 3.557255798601125 3.626589850388187 3.6460886594551063 -2.928973203950783
4.950610699797418 -2.916698132554066 -2.794433512807221 3.051954745482437 2.375439687420273 4.528963653763446 3.328466056749292 3.298093136740114
-1.927067078894423 -1.806608075025819 -1.9816117174386274 -2.862692280414323 2.6732511551187943 2.8426839602484733 -0.06560390937597799 -2.874360739177349
-2.578730108535164 -4.309195272967966 -4.618072990447277 -3.3287361708693313 3.7441572915755907 -2.574268529139194 4.417156289662945 -3.3193859265135575
-2.255547469628511 -4.48509104901536 -4.2828307830069985 -2.820538268144379 4.15335987366082 -2.483079345293458 4.844314583355058 -2.824275088324777
-1.6941205473128536 -2.327136733659484 -1.9447058467686238 -2.831103740472186 2.5330002100949236 0.06445944077669803 0.3808543549846686 -3.1906237000267805
-0.30043244250929485 -3.8427919363393976 -4.314592672543439 -3.139099411561615 4.433211901681813 -1.120528394830842 3.7559408029659767 -3.25011292606951
-2.7571788326714355 -4.092675942818166 -3.91005642789966 -3.090696400935666 3.8270127472412554 -2.9318808444980653 5.017270252755906 -3.0471292408034656
5.285004784216811 -3.206743675183285 -2.990235626358022 2.8644045293804883 2.6313877338995977 4.888028865302307 3.8716563841725984 2.908322111086439
00000000: d456 6e9a 9323 1140 de9e eaff 26be e0bf
00000010: 8ad4 0fdd 5030 f0bf 8f6f 490b b146 0840
00000020: f741 f499 ee65 e8bf 8fc8 a2c2 6839 0540
00000030: 9449 8914 710e 0540 fc6e 4310 173f 0540
00000040: 38ce f119 b388 0bc0 d276 d728 a1a4 05c0
00000050: 7a87 a2e2 d977 05c0 0760 2199 3a2c 05c0
00000060: 588a cdf5 a79a 0a40 34c2 4dba 3640 0ec0
00000070: c34b 5a25 3049 0740 c38c 8353 d658 06c0
00000080: 6d64 a351 d4c7 fbbf 8bf1 305a e680 13c0
00000090: cca5 5c25 129c 12c0 7a2f 7376 ca28 06c0
000000a0: 2688 2449 5ea5 1240 7407 cb7d 3a58 ffbf
000000b0: 4cb2 3635 8ac0 1240 99a2 b9cb b49e 09c0
000000c0: 1a29 b1fa c179 c13f d76c 79c9 37f8 10c0
000000d0: d99e bf62 7453 13c0 7297 8a1e 0d66 08c0
000000e0: c89f 75ae a9de 1040 6449 52ef 0858 f0bf
000000f0: 8dd7 7a3c 69d3 1140 2cb5 e927 a855 05c0
00000100: bf40 ba58 000f 1540 a28c d855 badd 09c0
00000110: a855 8014 f58a 09c0 a252 b9ad 3968 0640
00000120: 4756 bbe8 f5cd 0340 2d93 528a 1059 1340
00000130: 770a b9eb bebd 0e40 1ddf 2be2 98d9 0540
00000140: 0413 bb1f da7f 1d40 0a08 f93a 47cf 07c0
00000150: 94b0 bc9e 9209 05c0 acf0 3c70 197c 0940
00000160: 1f64 f2b5 ff10 dd3f b2f9 4033 063f 1640
00000170: 227a 62d7 a192 1640 a2a9 68c3 4b86 0740
00000180: 06b8 efb5 df73 1840 07d0 eb4a becf 09c0
00000190: 3b6b 73e9 16f0 06c0 c4fe 197e fdcb 0740
000001a0: 273c 0916 04a2 f53f b0f3 0f36 122f 1440
000001b0: 643a a757 35a6 1140 30cc 46a1 c387 0740
000001c0: d18b f196 f6ae ef3f 9acb 2193 0cca 0ec0
000001d0: 04b1 950d 8b13 12c0 c181 781a 1131 07c0
000001e0: 8d25 8dcd de82 1140 61c9 4ab7 594c e0bf
000001f0: da92 c468 f860 0f40 e089 fe76 e8a6 04c0
00000200: af80 ccec ef58 0740 185f 282d fcb4 11c0
00000210: d624 711a c94d 11c0 3670 f5eb b61b 08c0
00000220: 5ac1 e2ac f88b 1340 bf93 43a3 800b ff3f
00000230: a98c e099 18c4 1240 f0db c3e7 a9f6 08c0
00000240: 564c 1c83 6960 06c0 744f 7c86 cee8 02c0
00000250: a7e1 84ba b5d9 06c0 65e8 000d 8074 06c0
00000260: 6609 c9eb 2565 0540 bbfe 0521 a4c5 05c0
00000270: 575b 259b 35fa fe3f 2cbe 617d 9c95 0ac0
00000280: b9ca ba2d d616 1540 8910 207d 57ac 0ac0
00000290: 1110 dbe0 7fcb 08c0 bda6 7282 197c 0640
000002a0: de79 1fca c0dc 0140 9f87 d170 33c9 1340
000002b0: f256 4842 23eb 0c40 9ded de0a 2db8 0840
000002c0: f356 91f4 23eb 1740 7f8f 6855 8f16 05c0
000002d0: deab 41f0 39de 06c0 5fef 0321 8268 0540
000002e0: eeef edcb 677e ed3f 4d24 a801 0a23 1640
000002f0: 7550 6c88 55b5 1240 32fe 075d fae5 0540
00000300: 015f b1ee 530f 1440 7479 67b5 858d 0ec0
00000310: 9741 e023 a461 0ec0 1ae9 d3a1 d8e6 0740
00000320: fa53 ebd7 1e2f 0740 6212 4568 f04f 1440
00000330: 7c88 1203 4ad6 0c40 93c0 a1fc 6fc5 0840
00000340: ecf9 f0e4 03fd 05c0 2af7 cc18 fbba 09c0
00000350: a0e1 90da ec07 0ec0 08cc c734 3412 09c0
00000360: ed6f b21b 0353 0b40 2158 628d 1809 04c0
00000370: a638 182b 168c 1340 292a 4755 d975 05c0
00000380: 23e4 7b75 0260 01c0 47cf e211 5995 09c0
00000390: f293 7a0a e35e 0dc0 b848 ab8b 9bbe 08c0
000003a0: d896 17b2 ee9e 0940 873c d44d e25c 04c0
000003b0: 4803 864d eb13 1140 d19a def6 3751 06c0
000003c0: 9f4c 2f63 46a6 f9bf 1593 fde2 3d91 13c0
000003d0: 9420 832e f823 14c0 34b2 9467 4748 07c0
000003e0: dbd2 77ba 0df8 1040 6205 160e 675f ffbf
000003f0: 79df 3921 0a67 1340 b526 e0e6 8f9f 0ac0
00000400: e8fd 97dd ba71 0240 a0a5 058f 12d9 fdbf
00000410: 2620 d9ad a10b 06c0 f102 bbb8 6f0c 0ac0
00000420: 6bb9 564a 9b73 0640 a293 b2c9 d4b3 e83f
00000430: e241 5bc2 c74c 0040 e63a d6cc 17fa 05c0
00000440: 9bc4 6c25 3e08 f53f 8527 be2f d71a 04c0
00000450: 14ec 6850 ecdf 09c0 aa5a 629c 1908 0ac0
00000460: 160b 88da 397e 0a40 3429 4e00 b72a f83f
00000470: 2d67 f182 32c2 0640 2664 0cec d457 08c0
00000480: 9196 62b3 f54c d13f a0e7 c07c a28a 02c0
00000490: 054e 4cac e658 07c0 1819 037f 4526 09c0
000004a0: 84d6 7ee0 a797 0840 52ac 66fd 6708 adbf
000004b0: e527 b9a8 9bb0 0440 ab31 0378 f901 08c0
000004c0: 05c6 5576 e41d fd3f 1ad6 a4c9 e510 07c0
000004d0: bc84 4a46 b3a2 0ec0 1064 a9c4 0054 05c0
000004e0: 4ef9 56db 1e28 1040 5511 d4b9 9cad f43f
000004f0: 6c53 7e3e 2181 0b40 eead 9c15 2eae 0ac0
00000500: e687 d6bb e34c fb3f ebea f032 5343 fabf
00000510: 210a cda4 3a07 ffbf 6db4 1676 6496 07c0
00000520: bf93 ffb5 fdfb 0140 e190 7e55 846b debf
00000530: a06d 7d83 717d f93f d4cd f26c 1839 06c0
00000540: 7025 5b07 2209 fc3f 769e 5c4f 6eba 04c0
00000550: 03a2 bdb7 f95d 04c0 8e99 f446 6f2f 08c0
00000560: a3ba 0d39 c8b8 0a40 f7e1 4452 0750 f43f
00000570: a05e 5b51 ba5e 0240 bf42 c7bf c2aa 07c0
00000580: 309d 28cb ebf2 d6bf 5a08 f326 b6ce 09c0
00000590: f0db a68d 0ac5 0ec0 5897 7a59 f680 06c0
000005a0: 5583 8936 65b6 0f40 4b1b 9561 2a37 1040
000005b0: 80f1 bb32 c3fd 0940 8198 1258 c9af 05c0
000005c0: 873f 59a8 7f34 0540 9a72 e7ec e404 05c0
000005d0: 3dec a681 4df0 0fc0 8242 d3bd f8af 06c0
000005e0: 4dfc 3387 4275 0c40 e361 1b8a 4103 0d40
000005f0: c868 f587 302b 0d40 b1a1 ce80 896e 07c0
00000600: 2b6e 2be4 6ccd 1340 edfd 9cd4 6555 07c0
00000610: c9d3 22f5 ff5a 06c0 a8c0 e53f 676a 0840
00000620: 6ab9 d885 e600 0340 26bf e6a5 a81d 1240
00000630: a0ac dccf b2a0 0a40 d0af 8ba7 7e62 0a40
00000640: facb 104a 44d5 febf 78ce 6ede dde7 fcbf
00000650: 0b4f fc7c aeb4 ffbf 2221 d735 cbe6 06c0
00000660: e7d5 6980 d162 0540 330c 9116 d1bd 0640
00000670: 6473 42f5 6acb b0bf 8262 ddd7 b0fe 06c0
00000680: d6f3 4a40 3da1 04c0 9de6 85af 9d3c 11c0
00000690: 430c 4220 e878 12c0 1a2b f76d 40a1 0ac0
000006a0: 422d f3bc 08f4 0d40 ea32 3e19 1a98 04c0
000006b0: 34b1 b504 2bab 1140 576d 6935 1a8e 0ac0
000006c0: 420a c578 5c0b 02c0 c969 3cb5 bbf0 11c0
000006d0: be44 8d64 9e21 11c0 695f 165e 7690 06c0
000006e0: 5291 e75e 0a9d 1040 9844 2bb4 58dd 03c0
000006f0: f12e 8c00 9460 1340 7419 9a89 1d98 06c0
00000700: 940b a325 1e1b fbbf 1b1a 23dd f99d 02c0
00000710: 2f61 c3e0 831d ffbf 5d4a c7b7 19a6 06c0
00000720: 5bf3 389d 9543 0440 fdea 0df6 6980 b03f
00000730: 60b1 ccf1 ea5f d83f 09a9 ebb7 6586 09c0
00000740: 5107 cffe 483a d3bf 2548 dfb2 09be 0ec0
00000750: 8e8a e094 2442 11c0 5c66 fc26 e01c 09c0
00000760: 6dd8 97e6 9bbb 1140 009b a02e afed f1bf
00000770: 579b 13b1 2a0c 0e40 0b34 ae34 3b00 0ac0
00000780: d060 9cc6 b30e 06c0 b51e 3e71 e65e 10c0
00000790: bdbf 1aaa cb47 0fc0 9711 df08 bfb9 08c0
000007a0: e035 f6db b89d 0e40 bb1a b7f1 7d74 07c0
000007b0: ff1e 0b4b af11 1440 537d 9f4b 8560 08c0
000007c0: b2a8 4d4b d823 1540 5589 5c3a 69a7 09c0
000007d0: 9155 f4a7 00ec 07c0 b4a0 01ec 4cea 0640
000007e0: f98d 2103 150d 0540 7582 5970 578d 1340
000007f0: a6f7 7afb 26f9 0e40 aacc 0a62 3e44 0740

linear1.bias f8 [64]
0.766746387551835 -2.834509186774224 -4.504987092311382 -4.022785323929149 -2.3914831598643906 -0.3010569625129101 -1.0589181190833523 -4.740978232190357
-4.702292553445101 -2.6664673930138116 -1.9297289687908876 -0.4089611624413433 -2.869323445533803 -3.402500798264127 -2.8984017793556647 -4.164680687754026
-3.2190285368048217 -3.929819384460001 -3.2190006004011007 -4.251367069423859 -2.341595841459204 -3.073862510130536 -4.03469539304801 -3.567259542811816
-2.061539602305379 -2.493867444947342 -4.053129552472554 -3.9660588067834195 -2.6040577438870316 -4.422005052585993 -3.7666819304078696 -2.2402421657533664
-2.414498950451415 -2.9581714694807255 -3.757848505687049 -1.9227797352284286 -3.903035991252371 -2.3715493389649764 -2.0021845364306032 -4.214653483500381
-3.5058961211791724 -3.643831064358906 0.852605330600029 -4.369395117307008 -4.128886032990913 -3.8844691384574075 -4.246716732786487 -3.3684737660868382
-2.3435902941917277 -3.6816890026258053 -3.4754660922512564 -2.812748893479925 -4.489397008066805 -1.7915559871044646 -3.120435189208252 0.8548450535032338
-4.5587582025647695 -3.954762004470176 -4.362283348583183 -4.755451436934492 -3.8832711988514617 -4.019085569692644 -4.770402989062352 -4.700516930462443
00000000: 8c8f 5bb8 2f89 e83f 3941 0b27 13ad 06c0
00000010: a184 1956 1b05 12c0 f86a 3409 5517 10c0
00000020: 1b6b 44ec c121 03c0 8d77 0e6c 8444 d3bf
00000030: 64ad 2920 54f1 f0bf cf38 69ff c2f6 12c0
00000040: 8c15 75c7 25cf 12c0 f2c1 46db ec54 05c0
00000050: 559c b17b 2be0 febf fa42 8170 6b2c dabf
00000060: b3b5 c1d9 5ff4 06c0 3d44 a956 5238 0bc0
00000070: 9d01 a845 ed2f 07c0 cdbe e00d a2a8 10c0
00000080: 52bd 9308 92c0 09c0 5a8a 3b25 4570 0fc0
00000090: 7c37 0463 83c0 09c0 0ade 795e 6601 11c0
000000a0: 9322 bc99 96bb 02c0 fa49 4b3a 4597 08c0
000000b0: 2fda 6930 8723 10c0 eac3 055f bf89 0cc0
000000c0: cd7b 9a79 087e 00c0 02dd 64c6 70f3 03c0
000000d0: 6f48 e997 6736 10c0 392e 290a 7dba 0fc0
000000e0: 6d1f f739 1cd5 04c0 166a ae17 22b0 11c0
000000f0: 9f49 cc22 2a22 0ec0 533f a815 04ec 01c0
00000100: 3b52 63d3 e450 03c0 320a abcd 55aa 07c0
00000110: 9dfc 99e0 1210 0ec0 747b 03af b4c3 febf
00000120: aa51 0cef 6a39 0fc0 d3a3 1ddc eef8 02c0
00000130: fd35 8453 7904 00c0 2c6d 6e1f cedb 10c0
00000140: 361a fd43 130c 0cc0 1f90 ace6 9026 0dc0
00000150: 0a51 6af9 8a48 eb3f f08a b0b6 427a 11c0
00000160: b86d 42b3 fa83 10c0 86f7 3f8e 6413 0fc0
00000170: 96c6 aa4f a3fc 10c0 2437 b65f a2f2 0ac0
00000180: 4036 a644 acbf 02c0 c790 225d 1974 0dc0
00000190: c89b a42a c1cd 0bc0 0bda ea7d 8280 06c0
000001a0: f3a0 417d 24f5 11c0 1811 599c 36aa fcbf
000001b0: 017f 77b9 a6f6 08c0 4733 7e03 e45a eb3f
000001c0: ba8c 391c 2b3c 12c0 704d 0543 5aa3 0fc0
000001d0: 5833 f867 fa72 11c0 3f66 bd0f 9505 13c0
000001e0: a386 847d f010 0fc0 2a9f e62a 8b13 10c0
000001f0: c50d 6b85 e414 13c0 a185 6a4f 54cd 12c0
