stored_nn_configurations/s2s_sim_exp211005f5e-7d2e-11ed-9e1e-6a86964a8aa7_saved_encoder.pth (torch, 9001 bytes, 4 tensors)

LSTM.weight_ih_l0 f8 [48, 4]
-0.5149796420397392 0.9174525853262694 0.2863993694436631 -0.8813341611439938 -1.537545852122384 0.19162092415656906 0.3224214035067694 -0.12470067819691111
-0.7720407239478577 -0.5097352645433829 -1.6959881428868262 -0.8607228404954018 -0.36282527767105777 0.2825792735608402 -0.4261461494642618 -0.5342338814940842
0.630683235961483 0.14937356415534098 1.0478221524375566 1.4195308119416428 -0.5685648179137581 -1.8870082266075228 -0.6221590230011133 1.1361640107216338
0.22423425145491632 -0.693957355290212 0.2740914631313742 0.995547401920233 0.07035682026916927 -0.11297119603364825 -0.04526119419886966 -0.10904887069486434
0.39504452821292113 -0.3148481542879497 0.20843893004887215 -1.4349574755096506 0.688551654561322 -0.7082584737647802 1.1412670092160415 1.0147867411189444
-1.9442100930231132 -1.7834883333230973 4.302217067895206 0.9591027978647564 0.6743836871443539 -1.234828048616144 1.0438735450589554 1.1416850274967962
0.2164993212341439 1.934425859746702 0.0011165438881566188 0.8048514092826011 1.3587664094554242 1.9723070419849236 1.0825011593344853 -0.08372017831997186
-0.5116178376203886 -0.29846318633908087 -1.3286677437412717 -1.0172810502383127 0.24179965244619595 -0.15679714722799135 0.3222387452907273 0.07241891826908808
-1.417015930847267 0.015933331992831333 -0.009014726951486064 1.7124042974329234 -0.6058155611204863 -1.682221116772375 1.0087082365478504 0.8434985871649243
0.08351021444147108 0.15000510781397003 0.40730754031391553 0.20916283816066594 0.2654703902475368 -0.5634154580407672 0.30779748299310916 -0.7195946153645233
0.3829598633085984 0.5907248992444809 -1.3562034774027534 2.5667510637180397 0.8777267953180998 0.3073479251076527 0.5061321190381635 -0.7028557690187083
3.6911325749497297 2.495683488850597 4.180618444081884 1.362432031238275 0.28929703460828415 0.029542672063080026 0.44114161285784154 -0.29505781055147645
-0.26701320840664033 -0.9547472195286384 -0.8076838359945113 0.37545180252773386 -0.32934038352828393 0.17280715393966697 0.1667330267019392 -1.2241090928678502
0.05795894807755038 0.2516836363124532 0.22786271627539662 -0.02926067102307179 0.62791242339086 -0.11203777289857647 -0.31817858945865796 0.018152541711857637
0.2575125914809363 0.32765406192344176 0.7832503667798625 0.3227114227537417 0.1496112197184523 0.4562102710403891 0.32960529055375354 0.16551788213194732
0.21673798945166065 -0.24763930458427694 0.14549172476534286 0.2567017129917651 -0.6488415363668975 0.18184751386156348 -0.769564092020704 -0.3878436399843466
0.9069988024041046 -0.4130227742305807 0.5175653444737751 -0.9446107481978211 0.5148127695944559 -0.05756840818505485 1.003773847850088 0.5236216883915507
0.4911824235540858 -1.7542756676916431 1.8409697229117916 0.6719098732624582 0.2348567297087834 -0.5343836386533817 0.2962776506180128 0.19042032253408947
-1.4683193055226085 0.9782942982923367 -0.3250861588892529 -0.699283267124771 -3.2357182566521185 0.009510712201564048 0.15181195485031268 -0.24441713914424243
-0.3598338176883127 -0.20721279633270184 -0.9494251672301586 0.7867106299648099 -0.6375092845395336 2.4656166668396082 -2.8882652751214817 -1.2684140401342372
0.10885146976301899 1.0895073272530627 0.5735927188622527 1.013951190869141 -0.16764445215284526 -1.2154737584135522 1.5302804047164396 1.0037128063451952
1.904627235121322 -0.9488484485216698 -0.3877259579718965 0.19263135178994034 0.5521202307938735 -0.30893464446776314 0.4364753264173853 -0.25044423202344435
0.6547162329726681 0.95331613229198 -0.2188512223326195 -0.4229478044105461 -0.23324666481125308 -3.378316303864032 1.0688974557476796 -1.7828124976116724
-0.9931942909584623 0.046041442915189114 -2.206680954564239 2.5751705464366164 -1.3857601161152935 -0.006817323969355103 -1.7344980184509955 0.9828755029261376
00000000: b253 1596 b67a e0bf 5a6c 3386 c55b ed3f
00000010: 69c1 5605 5e54 d23f e6c0 deb2 e333 ecbf
00000020: 1c75 efad c999 f8bf 54aa 3dd1 0887 c83f
00000030: 3ce3 e561 8da2 d43f 900e a536 62ec bfbf
00000040: a828 91bf 8eb4 e8bf 999d 5a54 c04f e0bf
00000050: a2a4 8176 c422 fbbf 9d22 5ba0 0a8b ebbf
00000060: 9298 7083 8738 d7bf e628 9e60 c715 d23f
00000070: 35fb d07f fa45 dbbf d7d4 2da7 7118 e1bf
00000080: 73e1 129c 8e2e e43f 2492 7746 ac1e c33f
00000090: ebe5 4b29 e1c3 f03f 4842 cff0 65b6 f63f
000000a0: ae10 53d8 ae31 e2bf 0cff c889 2f31 febf
000000b0: 5b6f 160a bae8 e3bf d610 4f50 ba2d f23f
000000c0: fa29 523c b5b3 cc3f 9b48 390e e634 e6bf
000000d0: 4cc5 90eb b68a d13f 76af 9b39 86db ef3f
000000e0: 3b4c 1b92 e702 b23f 18c2 5a28 aeeb bcbf
000000f0: a25e b9a9 792c a7bf 47d8 4c75 a0ea bbbf
00000100: 04d9 48d8 6848 d93f 6bda 77df 7826 d4bf
00000110: 2cf6 e279 20ae ca3f 4a6f 47f8 95f5 f6bf
00000120: 7852 be7a 9d08 e63f 49e8 bdac 0daa e6bf
00000130: d562 0932 a142 f23f 1653 9805 913c f03f
00000140: f265 e10a 7c1b ffbf 58b9 0610 2b89 fcbf
00000150: 979c 1b64 7835 1140 6a99 ca59 f8b0 ee3f
00000160: 6bb5 2719 8d94 e53f 5fd6 4f0e dbc1 f3bf
00000170: 3601 13bf b4b3 f03f d6e7 f684 5744 f23f
00000180: be46 27f0 3fb6 cb3f 5a61 c287 68f3 fe3f
00000190: d0d3 fcde 1f4b 523f da43 20be 57c1 e93f
000001a0: f33a b8d8 81bd f53f 93ee 2fd4 918e ff3f
000001b0: 4694 53bc ec51 f13f 0c4a e683 af6e b5bf
000001c0: 6227 145f 2c5f e0bf 3eb9 1856 051a d3bf
000001d0: e5e6 a91b 3942 f5bf 4cd3 997e c846 f0bf
000001e0: dc64 b87f 4af3 ce3f 15a4 b9cd ed11 c4bf
000001f0: 9fc6 2142 8f9f d43f 78d2 93d5 0b8a b23f
00000200: 7066 8ee5 18ac f6bf 6655 4dcf d350 903f
00000210: b413 832b 5076 82bf 7611 700c 0266 fb3f
00000220: bc73 cd50 d762 e3bf e0d8 92b0 60ea fabf
00000230: 91dc 723f ab23 f03f ca0e c3bf f0fd ea3f
00000240: f676 e8e7 ec60 b53f 54a0 250c 5e33 c33f
00000250: 7dff 43a5 5311 da3f 1424 b80e d9c5 ca3f
00000260: 8cd9 0a85 77fd d03f 1112 cbda 7f07 e2bf
00000270: fcc6 cf36 f4b2 d33f 55c9 6b49 eb06 e7bf
00000280: efd3 2516 6a82 d83f 9c03 66e7 37e7 e23f
00000290: 2ba9 e26a 02b3 f5bf 3623 1dc8 b488 0440
000002a0: 1cda 1681 5616 ec3f 3f2c b5a1 96ab d33f
000002b0: c12b 57fc 3b32 e03f 64b0 b761 cb7d e6bf
000002c0: f7df f483 7087 0d40 743e aee7 28f7 0340
000002d0: 5d8b 990a f4b8 1040 530f 9387 85cc f53f
000002e0: 283b 9eb5 d783 d23f feb7 6329 6f40 9e3f
000002f0: 8b43 0808 aa3b dc3f 7fde af27 3ae2 d2bf
00000300: 2838 6d91 be16 d1bf 6251 7a0a 4a8d eebf
00000310: 0c56 a3c5 8bd8 e9bf ed2c 45ff 6607 d83f
00000320: 8f63 20b0 e913 d5bf 41c5 5779 8b1e c63f
00000330: c388 6c00 8257 c53f 86a8 896a f395 f3bf
00000340: 3add 0195 cbac ad3f 3f9f b9ae 951b d03f
00000350: 0ab6 3001 9b2a cd3f 3295 6964 82f6 9dbf
00000360: 3ce8 66cb db17 e43f 941c 84ea 81ae bcbf
00000370: 48ca 00bb 095d d4bf 5c81 f773 9496 923f
00000380: 4e01 ae17 167b d03f 2737 17be 48f8 d43f
00000390: d2c8 bc12 6310 e93f 0778 b1cf 4da7 d43f
000003a0: 1918 e7df 7526 c33f e5ef 8d90 8c32 dd3f
000003b0: b215 e1c9 4018 d53f 7d77 54a1 b02f c53f
000003c0: 4b72 3f08 12be cb3f 3363 320d a5b2 cfbf
000003d0: 0757 da0b 799f c23f a51d 8805 cd6d d03f
000003e0: 576e 5f53 4fc3 e4bf 2379 7282 c746 c73f
000003f0: 99f4 ecdf 44a0 e8bf 8170 6c21 6ed2 d8bf
00000400: 07c7 3a5a 2206 ed3f cfb4 f412 f76e dabf
00000410: d0d9 8132 e58f e03f 21b6 de51 403a eebf
00000420: 7915 1fa1 5879 e03f b40b e03c 9b79 adbf
00000430: 118a 912a 750f f03f c3c6 6345 82c1 e03f
00000440: 783a 6267 886f df3f 7c77 ce5c 8311 fcbf
00000450: 3651 0dab 9c74 fd3f 48b2 7022 4980 e53f
00000460: 5220 ac0a c90f ce3f 8714 71b7 ab19 e1bf
00000470: 422a fc88 36f6 d23f 388b e370 b15f c83f
00000480: 6de1 5462 3c7e f7bf 61ec 20d8 2f4e ef3f
00000490: 45f1 332d 36ce d4bf 0b1c 5e4d 8760 e6bf
000004a0: bc20 db40 c0e2 09c0 f067 f02e 5a7a 833f
000004b0: 76a9 9cfa 926e c33f 676b 9a91 0f49 cfbf
000004c0: 10d5 bd6b 8407 d7bf 94e4 c7eb f285 cabf
000004d0: 7217 68e3 b061 eebf 4ca9 63c5 bb2c e93f
000004e0: 06cc ffde 7966 e4bf a063 243b 95b9 0340
000004f0: bc8d 16d3 2a1b 07c0 d89e 4285 6c4b f4bf
00000500: 72f2 c09e b0dd bb3f 4ede 343c 9f6e f13f
00000510: 4e96 171e df5a e23f 165f 48e2 2439 f03f
00000520: 6718 ad97 5f75 c5bf c284 989c 9472 f3bf
00000530: d177 3f4e 077c f83f 9043 dd28 350f f03f
00000540: f4ab 5e68 5a79 fe3f 6359 e86b f75c eebf
00000550: 172c 5389 80d0 d8bf d29f 0fe6 24a8 c83f
00000560: 7207 d70b f8aa e13f 9bc9 a5d0 95c5 d3bf
00000570: 604f 1e35 36ef db3f 48cd 803e 4707 d0bf
00000580: c6e4 1875 6ff3 e43f 372f 5ed5 9081 ee3f
00000590: 56da 4d1d 5103 ccbf 63ee f6aa 9311 dbbf
000005a0: d3f8 a1d6 06db cdbf ef1d c5b2 ca06 0bc0
000005b0: 196c f337 341a f13f 7f46 c265 6686 fcbf
000005c0: 36b2 c764 3fc8 efbf b5ab 2977 be92 a73f
000005d0: cb79 2458 48a7 01c0 af8a f403 f399 0440
000005e0: c30f adcc 122c f6bf 98f3 e977 7bec 7bbf
000005f0: cf94 83fe 80c0 fbbf 1c6f a353 b773 ef3f

LSTM.weight_hh_l0 f8 [48, 12]
0.5630386054859657 0.7673380267787526 0.12530637746808704 0.27477836421007845 0.25551477511941606 -0.13166181401055727 -0.38071045431297235 0.12855722333789996
-1.0074139331644971 -0.11557760595623594 5.285176787311457 0.3848595147278262 -0.06945834751789509 0.8595694118381298 0.10119839081694945 -0.3052991765630096
0.960500036842367 -2.8516434594811844 0.42311809153726776 0.04633036295534097 -2.3439109081665643 -0.2962849208198567 0.20050154240299944 0.9352901409458589
-0.33350917428377497 -0.30059023406829344 0.12793484513277 -0.5078605965538844 -0.3088691964154706 0.36087546540550125 -0.21345282154997694 0.7005490995799571
-0.4673183153207951 0.16737274036255453 -1.7993053629729527 0.11623694731764371 -0.5198295844972516 -0.22176792315872013 -0.738680157531234 0.09644906605572157
0.5093894183124996 -0.2222251791261069 0.49101106129855526 0.0012855014018771822 -0.283736447119292 0.5078733440022831 0.9269180555352915 0.22953565108579266
-0.5649878573549569 0.6011993587601726 -0.8199370595586798 -0.2720494854027584 0.16716242204126336 -0.8843713246953179 0.38052912259081256 0.5188790028444382
-0.15517197962111048 0.28990505128136806 0.8446137290236603 0.5365597067203891 -0.13841452631247647 1.0823812138539382 0.28969400989857585 -0.3696975798475314
0.08646656908364923 0.21214652868340905 0.21599404111767395 0.5799624437780592 0.4550824953224846 0.3061832174448129 1.8913838079454066 0.42436751045801624
-0.6938813669002724 0.6597648575979399 -0.1608148562203574 -0.6819587473096324 0.13033854653998947 -0.3285482130691642 0.1915495993867603 0.6236272141325095
0.04073997444271317 0.1854920906240508 0.8066927730929944 0.4868458315790544 0.7083557621581456 -0.13495161921031354 0.7286267511713065 0.36813592673035633
-0.6687911888754936 0.7619883337425982 -0.7197343579161459 0.27652061868915395 0.3032235495303144 -0.5564643613260815 -0.720034934746427 -1.1543717390739663
-0.6606218444224987 -1.0021622938564405 0.5869092161960093 -0.5533038698269281 -0.1982142281565061 1.200943611279327 -0.5620835472159812 0.0034872170445756218
-0.679392818831823 -0.49359986488745555 -3.3991836604077976 0.3720196758717526 0.7311788750517824 -0.6354874360879093 -0.7782645128539004 0.3246561200497885
1.1308491839040393 -1.0918155846989759 0.957623774994374 -0.7798691425738953 -0.3975082417623259 0.9471105380379958 1.3335236560338783 0.9477562580959612
-2.035302776525852 2.0439614480259194 -0.3378562648419136 0.742436782400178 0.824626881020925 -1.06841689449724 -3.891495279845073 -0.1563473219249844
0.8114464073944009 0.3066883676777368 -0.0366346410785586 0.8092112813716171 -0.6876889500852594 0.036544167371672584 -0.5276136527128948 0.2295326779249852
0.8654440978982036 -0.2870278996319407 0.8352967641771807 -0.31274127888254166 -0.13086037684240537 0.70670948696342 2.0525448292809916 1.0325635536971443
-0.5376571538584195 0.6690384626056931 0.16867538879387206 0.3450713802262261 -0.6457813332822985 0.5476634717880343 -0.4017778225486313 0.07588029706756819
0.007199872383048339 -0.19224398376348395 2.445876871555017 -0.045263740466760786 -0.40608138839837343 -0.6814204255770302 -1.0728175827177793 -0.19348389041890804
-0.9838913781042862 1.6055340811485113 1.2549717185651272 0.18286532853011472 0.4205485303627313 -0.3503632324224547 1.2003946119413258 0.22978162174864966
-0.12516188485727237 0.618564387448482 0.07886508450053006 -0.6305543943876759 -0.28214110970526235 0.2997454438976544 -0.11431363101033819 0.5056133707270472
0.4366508096370401 -0.019452088407279747 0.2880194983107687 0.04921205025818553 -0.3935667217872004 0.06676502428511971 -0.044374579210509926 -0.4958035247837836
0.11006206658537335 0.5999980717048475 -0.1190453359107027 0.562616186247956 0.3663236770070052 -0.1087937267056435 -0.43278077463921677 -0.018457203065637702
-0.9218153407916702 1.1102471644342309 -0.46836299752316324 -0.6585958094990255 0.5873745798232027 -0.31264124264922377 0.32292457897726284 0.6156325750971698
0.010726932455844718 0.8556887910421381 1.6231089919722348 0.5829892415497671 -0.40995338985798235 0.909257871169793 0.033810262802321474 -0.4820543186798523
-0.42856812991610327 0.2661074074247193 0.3002597840234986 0.5556953669206005 0.5000351915077591 0.1894524903898115 0.39064113001313133 0.09212275318155672
-0.42706484773910997 0.7079392906179633 -0.1638720496073938 -0.841635184895643 0.4650475448417337 -0.22761986666475356 0.15735727460702778 0.48237431448683343
-0.013644512198405338 0.09181080725492669 0.7138692615145714 0.48155199841199636 0.6747807665222676 0.5889649300178945 0.6749779746350155 0.0727412275466031
-0.9287880932292013 0.8003261171547069 -0.703577088781951 0.12982241230503985 0.6948731164508514 -0.48280006002076375 -0.8568772279327117 -1.0272041730297135
-0.06296587942741838 1.0136146466581615 1.115754758714639 -0.16122139974290514 1.1920873735758952 0.5627968215859293 -0.9401608072320662 0.29252609216276443
0.8237919494077545 -0.522803008928893 -0.5730502693065989 -0.9247507290927407 -0.6323454173257966 0.7696954364225855 -0.7645505012246497 0.3559609658566682
00000000: 4e53 9e89 6904 e23f c4bd 3f7a 088e e83f
00000010: 3c53 9a14 0a0a c03f ff8f fbfd f795 d13f
00000020: 8917 b2a4 5a5a d03f 2a58 a758 4bda c0bf
00000030: ca3f a161 8f5d d8bf ff4e f326 9074 c03f
00000040: b39e 8712 5e1e f0bf e364 bb75 7e96 bdbf
00000050: 0053 3c62 0524 1540 50de 53cd 89a1 d83f
00000060: 2c08 06b3 05c8 b1bf 3c93 0fb6 9781 eb3f
00000070: b674 f742 23e8 b93f e55d b58e 058a d3bf
00000080: af6e c192 6abc ee3f 8797 3272 2ad0 06c0
00000090: 6ae7 5fe7 5d14 db3f aef5 6803 9db8 a73f
000000a0: 2281 ba5c 54c0 02c0 ee07 4e07 55f6 d2bf
000000b0: 708f b5d7 08aa c93f 3a47 f496 e5ed ed3f
000000c0: ebbe 1ddd 3658 d5bf e27f 34d2 de3c d3bf
000000d0: e999 ee43 2b60 c03f 0f08 a4dd 6440 e0bf
000000e0: e828 564e 83c4 d3bf 271b 7668 9518 d73f
000000f0: c9e5 e50b 6c52 cbbf 6f05 fef1 e56a e63f
00000100: f3f9 4714 8be8 ddbf 5bae 0c4f 786c c53f
00000110: a5c7 976b f4c9 fcbf 83ef 505f b4c1 bd3f
00000120: 3c16 1da7 71a2 e0bf a65f a22c e462 ccbf
00000130: f99f d991 44a3 e7bf c066 70d0 e2b0 b83f
00000140: ae94 9209 eb4c e03f 26e1 58ea df71 ccbf
00000150: 5519 90a8 b96c df3f 50b9 b89e c80f 553f
00000160: c0e0 43ea bc28 d2bf b4ff 5f99 7f40 e03f
00000170: 5712 d30d 50a9 ed3f 60fb 5699 6c61 cd3f
00000180: be40 3f6a 6114 e2bf 1d09 0870 063d e33f
00000190: 65a7 f2a4 ec3c eabf d8b3 ac3e 4269 d1bf
000001a0: bac8 e407 9465 c53f 53c5 a217 c54c ecbf
000001b0: d5ff 2cd2 965a d83f d588 7923 a89a e03f
000001c0: 3b37 dde8 acdc c3bf 27b7 8cea cd8d d23f
000001d0: 6318 fd5e 1307 eb3f bee4 1643 7f2b e13f
000001e0: 66d6 e633 91b7 c1bf 4deb b4f6 6e51 f13f
000001f0: 8c22 97be 588a d23f 72c0 b609 20a9 d7bf
00000200: 7f5e 694e ac22 b63f 8adc 5311 9e27 cb3f
00000210: e09a 5d57 b1a5 cb3f 8beb 1d66 0d8f e23f
00000220: e518 9954 1220 dd3f 1c9c 607e 8198 d33f
00000230: 93f3 f4aa 1b43 fe3f 4cbc b958 d628 db3f
00000240: 8a7e 44b2 4634 e6bf 2ddd cd30 cb1c e53f
00000250: 4cb4 16ca 9495 c4bf dd4f 9d26 9bd2 e5bf
00000260: 2512 66f9 eeae c03f a9a4 9215 ef06 d5bf
00000270: ecc9 7680 b284 c83f ed07 330f c1f4 e33f
00000280: d21e beb3 dedb a43f cccf 726f 34be c73f
00000290: a353 cb5c 6dd0 e93f 93dc 346b 7b28 df3f
000002a0: 60e0 0cb4 d9aa e63f 2978 863b 1846 c1bf
000002b0: 0eb0 680c e950 e73f b487 72fd 898f d73f
000002c0: b057 82c7 bc66 e5bf ad74 ab5b 3562 e83f
000002d0: 44d6 2159 1008 e7bf 7322 7c89 83b2 d13f
000002e0: ec05 27bf 0368 d33f 1b1f 2959 8ece e1bf
000002f0: 28d4 16b4 860a e7bf 42fd 2b80 4e78 f2bf
00000300: ae2b 1a6c d023 e5bf 335d 5654 db08 f0bf
00000310: 230d 29d6 f5c7 e23f 4e05 3551 aab4 e1bf
00000320: 9b5c c475 155f c9bf bb8e eca5 1037 f33f
00000330: a731 9da2 96fc e1bf a0dd 2265 3991 6c3f
00000340: 4aa3 4002 96bd e5bf e01a 40e3 2397 dfbf
00000350: 7a64 f433 8731 0bc0 d79c 559d 2bcf d73f
00000360: 83f3 7b3d d165 e73f d886 60bf e955 e4bf
00000370: 3509 cbfa 8ae7 e8bf 8ad8 8376 2ac7 d43f
00000380: dd37 5950 f517 f23f 38b9 589e 1378 f1bf
00000390: fd21 6f9d daa4 ee3f 4e76 d021 b0f4 e8bf
000003a0: 209e 9068 c670 d9bf b83e 52c2 ba4e ee3f
000003b0: ccb9 b1e6 1c56 f53f 653f a3ee 0454 ee3f
000003c0: 9d17 75d2 4c48 00c0 f372 ac75 085a 0040
000003d0: b7a9 0fe2 6f9f d5bf 0f33 78c8 0ac2 e73f
000003e0: 3865 ace9 5763 ea3f a1c0 4550 3c18 f1bf
000003f0: 9dc8 fb46 c821 0fc0 3614 3e65 3003 c4bf
00000400: 8fe6 c674 5ef7 e93f 0454 4f3f c8a0 d33f
00000410: 0c8d aa92 c6c1 a2bf 8173 a10e 0fe5 e93f
00000420: fcf9 cd41 8c01 e6bf b617 71c7 eab5 a23f
00000430: 4766 ea06 36e2 e0bf db8a 86a8 5361 cd3f
00000440: f2a5 1fd2 b7b1 eb3f 415c 7d44 aa5e d2bf
00000450: 480f 9347 c0ba ea3f 0c39 3aff f303 d4bf
00000460: dcaf 7067 08c0 c0bf 89fc c836 5d9d e63f
00000470: a4af 9a9f 9c6b 0040 7ebb 625c 6185 f03f
00000480: 0709 89c6 7c34 e1bf d20a 9559 c368 e53f
00000490: fe3f 41b7 2797 c53f badc 3645 a615 d63f
000004a0: 6b12 5a9d 3daa e4bf bf63 918b 7586 e13f
000004b0: 85af 0654 bab6 d9bf 6ae3 5022 e46c b33f
000004c0: a0a3 ba06 9d7d 7d3f 30f7 8e6b 739b c8bf
000004d0: 05f9 aae4 2791 0340 57ad ff19 cf2c a7bf
000004e0: c1db abca 3cfd d9bf 7cc0 5535 32ce e5bf
000004f0: d38b 05c5 422a f1bf a176 d382 14c4 c8bf
00000500: e6c6 78c5 097c efbf 1b57 3281 44b0 f93f
00000510: 3246 8a39 5d14 f43f 40f8 cd8e 2168 c73f
00000520: 9a7b 1262 44ea da3f 266b 3ee8 596c d6bf
00000530: 5a52 09fb d034 f33f f7ee 50f3 7b69 cd3f
00000540: 4677 15fd 4d05 c0bf d5f7 d18a 47cb e33f
00000550: 9ede b98e 8030 b43f 1cd0 c768 802d e4bf
00000560: d7a3 c295 990e d2bf 6196 aa83 072f d33f
00000570: 7729 ad7a a843 bdbf fc2c 7617 fc2d e03f
00000580: bd6e ca3c 16f2 db3f c152 318e 3feb 93bf
00000590: 9cb9 7655 e96e d23f cf24 db64 5232 a93f
000005a0: 5ead b779 3230 d9bf 743c d23b 8317 b13f
000005b0: e23e f7cc 43b8 a6bf 2906 0cb5 3ebb dfbf
000005c0: a2ac 8310 072d bc3f 0f55 f427 2f33 e33f
000005d0: 4351 7a50 c179 bebf b053 04a9 f300 e23f
000005e0: 2ab7 1fdd d871 d73f 7af0 35da e7d9 bbbf
000005f0: 4d6e 5a22 aeb2 dbbf e290 2bee 71e6 92bf
00000600: 99d7 b4e2 827f edbf 508c db87 92c3 f13f
00000610: 5a2f 41cb a8f9 ddbf 3b97 e284 3713 e5bf
00000620: ebf4 5ac6 c5cb e23f 34ca 236a 5002 d4bf
00000630: dd0a 72da cbaa d43f a2a0 0c16 43b3 e33f
00000640: 608d ac80 00f8 853f 678d a275 cd61 eb3f
00000650: 12d4 6522 41f8 f93f f608 cc0d d9a7 e23f
00000660: 84c2 9424 ad3c dabf 44c1 89f6 a318 ed3f
00000670: 31a1 022a 944f a13f a508 685b fad9 debf
00000680: 243e 8605 a96d dbbf 7a33 075d e707 d13f
00000690: 38d6 2bd0 7437 d33f 6fce 6ea6 41c8 e13f
000006a0: 5dff 4bcd 4900 e03f fc5b 2fad fa3f c83f
000006b0: 9f3f 78a7 4300 d93f 30dc 2154 5b95 b73f
000006c0: 75e2 93cc 0755 dbbf 323e 984c 70a7 e63f
000006d0: 5168 e562 c2f9 c4bf 3945 49e9 acee eabf
000006e0: b08a 0bc7 56c3 dd3f 115c 9fd5 a522 cdbf
000006f0: b9c8 1c7e 4824 c43f 06b0 4984 38df de3f
00000700: 3cd3 4b6d a7f1 8bbf 044b 94be e980 b73f
00000710: 6664 7a59 04d8 e63f a230 2079 bfd1 de3f
00000720: bcda 85d5 cd97 e53f 805e 1dfb ccd8 e23f
00000730: 987c d268 6b99 e53f a330 6249 2b9f b23f
00000740: 01ad aace a1b8 edbf 5c0d 6a84 459c e93f
00000750: 5a11 5119 b483 e6bf 23a9 9153 059e c03f
00000760: 0bd5 c08b 663c e63f f3f1 1239 32e6 debf
00000770: 700f d5ca 896b ebbf 34a3 97a4 6d6f f0bf
00000780: 9096 e728 881e b0bf 5d4b e2fd c337 f03f
00000790: 6a92 70a9 21da f13f cbd2 a71f e7a2 c4bf
000007a0: 63ba b735 ca12 f33f 5523 e07a 6e02 e23f
000007b0: ac5d 011e cc15 eebf 5535 c45b bfb8 d23f
000007c0: b342 2def 805c ea3f 2133 3360 cdba e0bf
000007d0: c258 b484 6d56 e2bf abf9 4cd7 8e97 edbf
000007e0: 9512 e674 2c3c e4bf 2f18 ea52 58a1 e83f
000007f0: 15cf dc9c 3277 e8bf 1372 c080 10c8 d63f

LSTM.bias_ih_l0 f8 [48]
0.08612295537959995 -0.8570246874421875 -0.25147259047306053 2.7024429420330627 -0.13598955811482294 -1.433930574358644 0.8219847361767282 -0.09480427448143883
-0.11614727382797083 -0.38735235301425347 -1.4718068835882785 0.4902527935454219 -0.02617760270887179 0.34889284271434706 -0.5254041628796005 1.8143994519611821
-0.8695701483703943 0.3711237974179718 0.7174185983796156 0.24975392079861694 -0.8685342058549403 2.616989189526868 -0.17463558337493212 1.064100066207725
0.1532954662740149 -0.25101075184177885 -1.986360294534044 -0.458360995640821 0.551647025381166 -1.0109676795182976 0.17096900515808872 0.1550753463816626
0.059957629908329584 1.3980871575602771 0.46341181352756794 1.738846851203414 0.48366562199895263 1.3491802614505426 0.07563516553023905 2.1415010352050157
0.1313311652008084 -0.7463688073187928 -0.6047480245609033 1.6871249631075238 -0.24520017108128048 0.8665907927988817 -1.0527526478773335 -0.30731012985115486
00000000: c34d ca6c 270c b63f dfb8 8d09 bf6c ebbf
00000010: 4305 fb7d 2018 d0bf 48b4 ba67 9a9e 0540
00000020: 18af 5918 1b68 c1bf 8ead 992f 61f1 f6bf
00000030: 6916 f6ee b24d ea3f a235 6bca 1745 b8bf
00000040: 4656 9ce6 d3bb bdbf 3364 0e86 61ca d8bf
00000050: 1ea1 f05f 858c f7bf eb36 c340 4d60 df3f
00000060: f8d1 162e 4dce 9abf da0f 51a5 4254 d63f
00000070: 2801 1864 1cd0 e0bf 8cdb 40b8 c707 fd3f
00000080: cd84 9ac6 84d3 ebbf 755c 2b07 7ec0 d73f
00000090: b9a4 32d9 17f5 e63f dd5c f0bc eff7 cf3f
000000a0: 6e56 333f 08cb ebbf 0e07 3807 98ef 0440
000000b0: 6c17 a873 755a c6bf ae89 80ca 8d06 f13f
000000c0: c0cf 2293 2f9f c33f 3db5 8666 8f10 d0bf
000000d0: dd8b 71bb 21c8 ffbf 4c84 825b c955 ddbf
000000e0: 4b54 9ea9 17a7 e13f 6c81 0d72 ec2c f0bf
000000f0: 864e e4f6 4fe2 c53f b203 904a 82d9 c33f
00000100: 6732 3437 c4b2 ae3f 24dd aaa3 905e f63f
00000110: c394 eb05 8aa8 dd3f 68bd 6a13 51d2 fb3f
00000120: 09d7 2ba7 60f4 de3f c46b b50a 3e96 f53f
00000130: a642 6182 d35c b33f 0c72 744b cb21 0140
00000140: 6ed4 bda9 75cf c03f 2a0a 46d6 40e2 e7bf
00000150: efe8 7987 185a e3bf 0afe ccbe 76fe fa3f
00000160: 2544 e21d b862 cfbf c5bf 429d 1cbb eb3f
00000170: 9e91 1629 13d8 f0bf 9f2c 5c1b f8aa d3bf

LSTM.bias_hh_l0 f8 [48]
-0.848336194457894 -0.5378744184106626 -1.131294636037712 1.933562217126142 -0.5417128318689434 -0.6128387436282047 0.7834199349606026 -1.9413829321085454
-0.021035546113432106 1.8665366712434053 -0.9641657469420092 0.883715183252987 0.11645574599451253 0.07883652049735948 -0.1312213169294732 1.4665407845875247
0.6769485834919123 1.0724206633580642 1.0654647819657357 0.9660837934068012 -1.48853093236785 2.001720720670056 -1.1794836165647054 3.355784812949975
-0.7108842641413292 0.3544377474801587 -0.37025442512162166 -0.7744282665754023 2.2960263073788467 -1.4395038561998157 2.3139348732735123 0.07470153764009288
-0.19112577391743021 2.460313035798955 -0.8258093540368248 0.9905376710629203 -0.18985649275477082 0.03555257696164926 -0.8172065014066355 -0.02385434914480575
0.3566695348087334 1.2270778598755747 -1.1371381422061675 -1.5893415257306727 1.3221860612352134 1.1505181142329033 -0.35150310802518997 0.2341238005458793
00000000: 48b6 66f2 9125 ebbf ddb8 8d69 4436 e1bf
00000010: 51c1 7e67 c819 f2bf 9368 75ef deef fe3f
00000020: cb6b 1626 b655 e1bf 135b 33ff 5f9c e3bf
00000030: 6816 f6ae c611 e93f 5eb3 a68c e70f ffbf
00000040: ee58 719a 578a 95bf ee66 7c8e 55dd fd3f
00000050: 4942 e11f 72da eebf 749b 6110 6547 ec3f
00000060: 7c4b 7a34 0bd0 bd3f 6a3f 4455 a12e b43f
00000070: 8a04 6030 dccb c0bf 8bdb 4078 f376 f73f
00000080: 337b 6513 90a9 e53f 16d7 ca91 a228 f13f
00000090: 5a52 99cc 240c f13f 3217 3c8f 28ea ee3f
000000a0: 3aab 99cf 05d1 f7bf 0c07 3827 8603 0040
000000b0: ec02 7536 2adf f2bf db44 40b5 a5d8 0a40
000000c0: 0f4c 375b 90bf e6bf c34a 79a9 1baf d63f
000000d0: 722f c69d 3fb2 d7bf 2242 c1c9 1dc8 e8bf
000000e0: 1395 670a 435e 0240 6a81 0d32 3508 f7bf
000000f0: e544 6e49 f082 0240 5607 20d5 a31f b33f
00000100: 63f3 3232 cf76 c8bf 926e d599 b8ae 0340
00000110: a435 0abd 076d eabf de7a d50e 7cb2 ef3f
00000120: f951 a8b1 374d c8bf 1078 ad86 f233 a23f
00000130: add7 b33f 8e26 eabf 39f8 c645 466d 98bf
00000140: 30ea de74 acd3 d63f f0fa dc64 1ca2 f33f
00000150: 7af4 bcc3 b731 f2bf f901 3361 f16d f9bf
00000160: 7bb7 4392 ac27 f53f e55f a1ae 8568 f23f
00000170: 6346 5ae4 067f d6bf d3a6 47c9 c4f7 cd3f
