stored_nn_configurations/s2s_sim_exp211005f5e-7d2e-11ed-9e1e-6a86964a8aa7_saved_gdecoder.pth (torch, 2311 bytes, 2 tensors)

linear1.weight f8 [8, 12]
0	0x3fe799104844e8be	0.737434521818862
1	0x3fb0857f15257f19	0.06453699365874534
2	0x3fd5dcf843155fac	0.3416119246589868
3	0x3fde92d1f26d4604	0.47771118807312996
4	0xbfe6e84ccdd13b15	-0.7158569354886334
5	0x3fd6bc068ebff30c	0.35522617283258806
6	0xbfe4b17dccdd1627	-0.6466664315455021
7	0xbfe2d217db99a912	-0.5881461419169531
8	0x3fb4e6bd01c2b99e	0.08164578717216961
9	0xbfe18c23f6e99eb3	-0.5483569929610524
10	0x3fcc6927516817a1	0.22195903277332454
11	0xbfdb23bd4de6b845	-0.4240563641313922
12	0x3fe38e054b29b587	0.6110865085626508
13	0xbfcd7b0c1d777fd8	-0.23031760634239506
14	0x3ff0d9ced213f7a6	1.053175755135706
15	0x3fe7601f3422baea	0.730483629062147
16	0xbff344548ae68177	-1.204182188586939
17	0x3fe73fba5fa6ec60	0.7265292995647421
18	0xbfe583b02814d6a0	-0.6723252089347689
19	0xbfd4184032df9748	-0.31398014991861034
20	0x3fdae52a35687cb5	0.4202371141017907
21	0xbfeb13206a7f03bd	-0.8460847930911012
22	0xbfe749e0c6d90949	-0.7277683147188238
23	0xbff0a9d4cc35a4df	-1.0414627053199224
24	0x3fe696403604c29e	0.7058411650705982
25	0xbff873d66decbc28	-1.528280667680301
26	0x3fd88f2ecf06137d	0.38373918740426644
27	0x3fe4abb46521ed5e	0.6459600424999896
28	0xbfe91cc953b46fa6	-0.7847639689311918
29	0x3fc0f5a24adf1515	0.13249615341025192
30	0x3f81d3b074ee004c	0.008704546516810428
31	0xbfce5c947be105e0	-0.23720031784800621
32	0xbfe8ce69a2c3bd57	-0.7751968554493186
33	0x3f95411583092cfc	0.020756088373940593
34	0xbffcce05f988e3ff	-1.800298666710887
35	0xbfe6a5a40159e463	-0.7077198053731418
36	0xbfa2633ace1ca27e	-0.0359133125878701
37	0x3fdbb82dea74f51d	0.43311641594103084
38	0x3fe39c2862c3377a	0.6128122261959412
39	0x3fd76273efde10d8	0.36538408684306267
40	0xbfe952c97baea82b	-0.7913558402699484
41	0x3fe2b29157420be4	0.5842978195436186
42	0xbfcabe20493e5f84	-0.20892718864774562
43	0xbfbe235b93ee31b1	-0.11772701608260296
44	0x3fdd7fe7da2bd65f	0.4609317427233232
45	0xbff09d32e96311f0	-1.038378631275119
46	0xc00b001095e5e3cf	-3.37503163440531
47	0xbfed15a2fee5cac8	-0.9088911989659545
48	0x3fce1b4411566f39	0.2352070889145297
49	0xbfbaaaede844e81f	-0.1041706745208164
50	0x3feb58eecf47fed3	0.8546060608350338
51	0x3fe0e0184377ebe5	0.5273553197615654
52	0xbfe7ea9cc4739af5	-0.7473892056412682
53	0x3fe1603f06954ef3	0.5429988030031992
54	0xbfebb2f70b31e44e	-0.8655963152551835
55	0xbfc9a9810e803f00	-0.20048535545401336
56	0x3fe7b42746942481	0.7407413843622096
57	0xbfe2dd4c483cf2bd	-0.5895139132404307
58	0xbfd1a130b9d9cc3e	-0.27546327733506704
59	0xbfe7fec9bc878d3a	-0.7498520548073551
60	0xbfcd2fc35fcdde3a	-0.22802011659563154
61	0x3ff238c6a0feea18	1.1388613022705893
62	0x3fd484090ba9cef4	0.32055879725451963
63	0x3fd42e39b407c48d	0.3153213747128312
64	0xbfe8ceef7c7a33e2	-0.7752606803129505
65	0x3fe3beb0ca936416	0.6170276600415743
66	0xbfd7751834f8434f	-0.3665218846590976
67	0x3fd0058e4c5c9e69	0.2503391023369433
68	0x3fea371f435552f5	0.8192287745574435
69	0xbfe15974a0d6cea3	-0.5421698705090033
70	0xbff24b06edfa37a8	-1.1433171554558417
71	0xbfe60071c644fb94	-0.6875542519045319
72	0xbff942308fab6efc	-1.5786595928283864
73	0x40051758ef20f873	2.636400097078018
74	0xbfee172534aca254	-0.9403253582759796
75	0xbff4d2b12ca3c734	-1.3014384979000626
76	0x3ff40ecc7c5b3364	1.2536129815736894
77	0xbfe839ef4313aede	-0.7570720968337488
78	0x3ff4f476dd473411	1.3096836703946375
79	0x3fc2845b4c52de22	0.14466420389884244
80	0x3fdbce7fb10d4a72	0.43447868623949326
81	0x3feadef655731437	0.8397170704780653
82	0xbfc67562ec2d620d	-0.175457349129616
83	0x3ff0ef0bdc4066b2	1.0583609202935063
84	0x3fd16dd6a005ffd5	0.27232900264061516
85	0xbf9d023e5e7466d3	-0.028328871264512067
86	0x3fdf6fd22d67b9ad	0.4912000125322276
87	0x3fdec45eba3d20cc	0.4807354754198172
88	0xbfe659ea5130cdba	-0.6984759889368697
89	0x3fe95e5d6885f5c3	0.7927691499204957
90	0xbfe0cf95b8f76c35	-0.5253399479510167
91	0xbfe2e4d061cc5862	-0.5904313955422931
92	0x3fd33eba1d0fd65c	0.30070355260918347
93	0xbfe7037f27aaae88	-0.7191768431416259
94	0xbffa31afbf4c6340	-1.6371304962724054
95	0xbfedd74454749e11	-0.932527699424954

linear1.bias f8 [8]
0	0xbfeeb48bdacf595a	-0.9595393441802955
1	0xbff0fab9e7f68890	-1.061212450128128
2	0xbfd360b98edb9189	-0.3027786154837249
3	0xbfe9b5aa7aa993e8	-0.8034260173559433
4	0xbfe50a12a8b263d8	-0.6574796004161909
5	0xbfe25f304353695b	-0.5741196932752176
6	0x3fdb608e7c128266	0.42776834598956837
7	0xbfe3e571013b8b0c	-0.6217579864572556
